saved_model_for_8parameters_V2.pt (torch, 65047 bytes, 6 tensors)

linear1.weight f4 [100, 13]
00000000: efe9 4abe 5a1e a23e 34e8 e43d 2675 883d
00000010: 2fc8 0cbe a43a 033f d4b2 85be b539 e2bd
00000020: 4e2b 143d 89e6 ad3b f1f0 31be 45e2 9e3d
00000030: c247 7ebc 2ad1 993e de83 5e3e 7759 25be
00000040: 773b f2be 52e3 f83d 0437 77be bc92 7dbb
00000050: fa73 95bc 51d3 9fbe 3dea 753d 0147 173e
00000060: 1d64 d73d 28b4 f83d f848 16be 87d0 e33e
00000070: 3b32 ab3e dd3a 9b3c 3866 c8be 6ade c6bc
00000080: e5f1 bebe 9d4d de3e 1965 5dbe 4e45 e13d
00000090: 5711 0b3e 6319 c83a 4690 983e a9a1 b1be
000000a0: f01f c53e 7f1f cbbe d1c6 87bd 2678 0ebd
000000b0: ba98 8d3c d4a9 ce3e 128b 63be 6e55 97be
000000c0: c9cc 64be 95fe 123e 279c 453e f18b 9ebe
000000d0: 8635 833e fb7a 81be 57b4 2d3e bced 89be
000000e0: 19c0 a4bd 72e8 edbe f413 a53e f1b3 b23e
000000f0: 6d94 8abd dbcf 76be a553 8e3e 4710 23be
00000100: 44e5 8c3e 8b28 febe a9ca 153e 7f88 ac3b
00000110: 4824 d0bd e3bf 823e c16a afbe a1f6 08bf
00000120: 9c60 91bd ed4a 04bd b2d7 403d 95c9 76be
00000130: 676f 55be 65d8 70be 2680 863d de7d ab3e
00000140: d9e1 96be 2047 673e 6b14 0bbe 91a9 c53e
00000150: 7986 ecbe df25 763d 9cd5 d2be 90da f2be
00000160: c6fd 84be 94b8 a7be 38b0 d7be cb76 143e
00000170: cb87 32be 85dc 25bf 67d2 de3e 8619 9fbd
00000180: f581 4e3e de0d 273e 191f af3e bc15 02bf
00000190: 2b44 10bf a4bc 98bd aa7c 0fbf 4ddc c9be
000001a0: b741 f8bc 1be3 983c 1e31 223e 7adb c13e
000001b0: 4c89 e73e 9959 aa3e 0470 67be c6e7 7bbd
000001c0: 2304 153e fc64 97bd b793 1ebe e921 d3bc
000001d0: f3f4 83bd 317f 1abe 2281 383e 1898 e1bc
000001e0: 1570 eb3d e6d2 21be 5ab4 ba3e 4818 033e
000001f0: a27e 5d3d 53c7 9cbd effb 18be beae 3bbe
00000200: ad55 023e 99f5 0bbe 1d84 0e3e 21f1 cd3e
00000210: 1b6c cd3d 08a1 d2be 2f6c dabe 9886 0b3d
00000220: c57b ab3d b842 9dbb c629 34be 655c 023d
00000230: 6164 88bd 8383 4f3e 60ca c03b 424a 9ebd
00000240: 4755 b73e cbe0 3dbd b8f5 debd d549 693d
00000250: 6ab2 a1be cdb4 32be 854d 0abd 14bc 743e
00000260: d2ff b53a 24b0 bd3e f5e4 403e 7e68 4a3e
00000270: af74 a33d 6a6b 5fbe 8e8b 01be fd71 eebd
00000280: daa5 413d ccbc b73d a752 8ebe e546 1c3f
00000290: 8808 6f3e eab3 37be 8feb 11be 5234 ad3e
000002a0: 07ac 2e3e 24af d63e 1792 913e 4236 d33e
000002b0: dbde 43be ae54 a2be 4036 afbe 09be 623e
000002c0: 7db2 ac3c d408 c43e d938 06be 2235 983e
000002d0: a903 bf3e 30ae 943e 045d 443d 8fb9 e43d
000002e0: 47a5 51be fa0e 01bf 685b 323d 93b7 54be
000002f0: 0935 63bd fa65 3ebe 5526 cabd 939c 9f3e
00000300: 4e8a 133e 0fba a23e 8b15 a2bd e985 143e
00000310: b10b bb3e 7efc 84bd 6504 0fbf dd1b 0b3e
00000320: 4f21 ec3e a517 e8bd 7d65 e03e c652 133e
00000330: 09eb 2dbe 736b 64be ca00 4ebe 63ba e73d
00000340: 8e26 87be 09ba efbe e85b b73e 4fb5 afbd
00000350: bf31 0e3e 27b0 55bf 5ea1 1fbe 0c8a 983e
00000360: 279a 873e 2a9b afbd 28e4 8d3e d029 1a3e
00000370: ba8e 343e 694c 3c3f c53e e4be 24c4 c33e
00000380: 744f 63bd 6cf1 ecbe 33e4 1b3e dd20 47be
00000390: f5bb 8fbe f5f1 513e 3b8b 49be d837 8c3e
000003a0: f035 383e ed14 c4bc 0c24 003e 8c5c 663c
000003b0: 026f 9ebd 055c b03d 4a94 6a3e 58e0 de3a
000003c0: a621 fabd e163 99be 1c43 1cbe d6d4 213e
000003d0: d869 453e 69b7 abbd a87a 033e ab95 fa3e
000003e0: 8173 a5be fb13 ab3e beec e83d ddc4 9abd
000003f0: cfb6 7cbe c022 be3e 9d31 353e 9b49 db3d
-0.19815801 0.3166378 0.11177102 0.06662969 -0.13748239 0.51261353 -0.26112998 -0.11046163
0.03617411 0.005307023 -0.17377068 0.07758001 -0.015520038 0.30042392 0.21729991 -0.1614741
-0.47310993 0.12152733 -0.2414208 -0.0038692197 -0.018243778 -0.3121591 0.06003784 0.1477318
0.10517142 0.12143737 -0.14676273 0.4449503 0.3343676 0.018948967 -0.39140487 -0.024275977
-0.37293926 0.4341859 -0.21620597 0.10999547 0.13580833 0.0015266355 0.29797572 -0.3469365
0.3850093 -0.39672467 -0.06629718 -0.03478255 0.01728474 0.40363944 -0.2222102 -0.29557365
-0.22343744 0.14354928 0.19297849 -0.30966142 0.25626773 -0.2528914 0.16963325 -0.2693919
-0.08044452 -0.46466404 0.32241786 0.3490291 -0.06766591 -0.24102728 0.2779819 -0.15924178
0.27518666 -0.49640307 0.1462809 0.005265295 -0.1016317 0.25537023 -0.34261134 -0.53501326
-0.07098505 -0.032298017 0.047080703 -0.24100335 -0.20843278 -0.23520048 0.06567411 0.33494467
-0.29469183 0.22585726 -0.13582008 0.3860593 -0.46196344 0.06009471 -0.41178596 -0.47432375
-0.25974864 -0.3275801 -0.42126632 0.14498441 -0.17434613 -0.6478961 0.435199 -0.0776854
0.20166762 0.16313884 0.34203413 -0.50814414 -0.56354016 -0.07457855 -0.560496 -0.3942589
-0.030304773 0.01866298 0.15839049 0.3786276 0.45221937 0.33271483 -0.22601324 -0.061500333
0.1455236 -0.07392308 -0.15486036 -0.025773006 -0.06443205 -0.15087582 0.1801801 -0.027538344
0.11495987 -0.15803108 0.36465722 0.12802231 0.054075845 -0.076552056 -0.14939855 -0.18328378
0.12727995 -0.13667907 0.13917585 0.4022303 0.10030385 -0.41138482 -0.42660663 0.034063905
0.083732165 -0.0047992133 -0.1759406 0.031826396 -0.06659771 0.20265011 0.0058835 -0.07729007
0.3580725 -0.046356957 -0.10886711 0.056955177 -0.31581432 -0.17451783 -0.033765335 0.23899871
0.0013885444 0.37048447 0.1883734 0.19766423 0.0798124 -0.21818319 -0.12650892 -0.11642835
0.04727731 0.08971557 -0.27797434 0.61045676 0.23343098 -0.17939726 -0.14250015 0.3382898
0.1705781 0.41930497 0.2843177 0.41252333 -0.19127981 -0.3170523 -0.34221077 0.22142805
0.021081204 0.38287985 -0.13107623 0.29728037 0.3730748 0.29039145 0.04794027 0.11168205
-0.20473205 -0.5041348 0.043544203 -0.20773153 -0.0554705 -0.18593588 -0.098705925 0.31174144
0.14408228 0.31782576 -0.07914265 0.14504208 0.36532357 -0.064934716 -0.5586608 0.13584848
0.46119162 -0.11332635 0.4382743 0.14387044 -0.1698419 -0.22306614 -0.20117489 0.11314847
-0.26396602 -0.4682162 0.35812306 -0.08579504 0.13886164 -0.8347191 -0.155889 0.2979282
0.26484796 -0.08574517 0.27713132 0.15055013 0.17632571 0.7355409 -0.4457914 0.3823558
-0.055495694 -0.4627794 0.1522377 -0.1944613 -0.28073087 0.20502456 -0.19682018 0.27386355
0.17989326 -0.02393576 0.12513751 0.014060151 -0.07736017 0.08611301 0.2290813 0.0017004116
-0.12213449 -0.29959014 -0.15259975 0.15803847 0.19278657 -0.08384592 0.12839758 0.48942313
-0.32314685 0.3341368 0.1137328 -0.0755708 -0.24679111 0.37135887 0.17694707 0.107073985

linear1.bias f4 [100]
00000000: 9045 c0be 0723 57be ccbc 57be fc56 53be
00000010: 537c 643e e8c7 ab3e 1b58 45bb 3866 9bbd
00000020: 86c4 26bf 52b9 bdbe 7834 05be 2a3e aabe
00000030: 1af9 a2bd e556 553e 7dc1 603e 8194 41bc
00000040: 2744 a9be 9faa 9e3e dabb 0ebf e2b2 86be
00000050: 5383 173f 85ee d03e 4d78 c13c eda1 77bd
00000060: f55a e4bd 408a 0abf 338d 2b3e 351d b93d
00000070: 7ca4 31be ce81 a63e 7341 84be 2260 a43e
00000080: 5ffa bbbd 191d 4b3e 8ad0 973e 3880 8fbe
00000090: 3cdb 39be f4fc ef3c 09d1 713e 9984 553c
000000a0: 9ebb 483f cdff e1bd 48a9 6fbe be61 d83d
000000b0: f635 35bf d04f abbe 9066 bcbe 141d 0abe
000000c0: 883d a6be c6a3 ddbd 9c46 a93e 1b46 2fbe
000000d0: 291c 4a3e 3fa3 03bf 5071 953e 8ab3 edbe
000000e0: 34b4 3a3f 6129 143f 860d 66bd 2122 35bc
000000f0: f957 1cbe f300 d73e 6f4e d23d 448b e43e
00000100: 42ef 993d 188e f2be 5b5d af3e 161d 4c3c
00000110: 4cb7 b33d 9af6 70be 2437 00bf 3b3d 40bf
00000120: decc 9e3e 9069 763e d10a f1be 1695 903e
00000130: 79aa d43e 83d0 5ebe 5d6b 4dbe e31f 9e3e
00000140: c27d c6bd b72b 3bbe 45d9 edbd 0c66 5d3e
00000150: 4d74 173e be9c 94be f55e aabd 6c9f 92be
00000160: 8530 96be 95d1 413f 3bc2 b83c ec71 d6be
00000170: 112c 6ebe aba4 adbe b518 93be 5e1b bd3e
00000180: c095 fc3e faff ac3d f373 ec3e fa0b 8e3e
-0.37553072 -0.21009456 -0.21068114 -0.2063865 0.22313051 0.33550954 -0.003011233 -0.07587856
-0.6514362 -0.3705545 -0.13008296 -0.33250552 -0.079576686 0.20833929 0.2194881 -0.011815191
-0.3305981 0.3098955 -0.5575539 -0.26308352 0.5918476 0.40806976 0.023616934 -0.06045716
-0.11150161 -0.541172 0.16753082 0.09038774 -0.17347902 0.32520908 -0.25831184 0.32104594
-0.09178614 0.19835319 0.2965129 -0.2802751 -0.18150038 0.029295422 0.23614897 0.013032102
0.7841128 -0.11035118 -0.2340442 0.10565518 -0.7078546 -0.3345933 -0.36797 -0.13487655
-0.3246882 -0.10822253 0.33061683 -0.17116587 0.19737305 -0.5142097 0.29188013 -0.4642604
0.7293122 0.5787564 -0.05616524 -0.0110555 -0.15267934 0.41992912 0.10268866 0.446375
0.07516338 -0.47374034 0.34250912 0.0124581065 0.087751955 -0.23531571 -0.5008414 -0.7509343
0.31015676 0.24063706 -0.47078565 0.28238744 0.4153631 -0.21759228 -0.20060487 0.30883703
-0.09691955 -0.18278395 -0.116137065 0.21620959 0.14790459 -0.29025835 -0.08318893 -0.28637254
-0.29333892 0.7571042 0.022553554 -0.4188379 -0.23258997 -0.33914694 -0.28729787 0.36934942
0.49333 0.08447261 0.46182212 0.27743512

linear2.weight f4 [100, 100]
00000000: 767f ef3a d179 90bd afb1 9ebc 825a 21bd
00000010: 3b18 693c ff40 14bd ce93 183e 40e6 20bd
00000020: 97bd c43c 2feb 4dbc 3a46 bfbc e43f cb3d
00000030: c617 e3bd 4c21 8bbd bf5e 573b 1f09 573d
00000040: 936b 47bd 90fb 92bd be6a b93d 7b28 0c3b
00000050: a5b0 f9bd 3364 b6bd 9b64 92bc 67b6 48be
00000060: 72d5 c4bd a210 d03c dad9 69bc 88fd 5a3e
00000070: a066 1abd 7e97 a23d 4ab4 353d 9d1b b6bd
00000080: 329b 8ebd 2f44 29bd 5f11 863b 64f7 af3d
00000090: aabb a43c ff34 8d3c 5d72 56bd 8c0a 843d
000000a0: e707 71bc 4c21 ecbd b652 a33c be10 09be
000000b0: 81c1 873d 780f 293e 2576 7d3d 20e3 2cbe
000000c0: 6891 79bb a48f ff3c a9df f3bd 5424 22be
000000d0: 2f2d 313d 8586 1c3e e3d8 a2bd c58e aabd
000000e0: 8e0a 10be d8cb 55bd f22b 113e 9750 9f3c
000000f0: fd10 40bd 8f26 20be 6907 a7bc f7fe ebbd
00000100: bb7f 07be 191b e13d f519 163e 2bf7 203d
00000110: a385 663d 3886 c6bd b53d 1d3e a09b 7fbd
00000120: 63ca 95bb 6c4d ecbd 6f08 31bd d3db 27be
00000130: 80bd b43d 186a ba3c a002 debd 277c e1bd
00000140: a1b6 3a3c 4f7e c7bd ae1e a3bc 53d8 8e3d
00000150: ff5c 49bd e812 5e3e d197 cbbd 9549 493e
00000160: c9f1 953d 1cc1 46be 1c53 d23d 9aed 933c
00000170: 6b2b 22bc 5a01 f93b c345 b73d 32b9 253d
00000180: 587e 023e cb70 0b3d f7f4 3dbe 9329 a63c
00000190: 455c 05be fe80 c9bc f40c f7bc e7a6 683e
000001a0: c71c a73d 67f6 33be 6fe9 77bd 6273 b33d
000001b0: a646 b9bc 304a 113d 0377 84bd 0a2d 69bd
000001c0: 721a 1ebd 4c30 1e3e fc65 a5bd 5b2a 28bd
000001d0: 8997 973d b1d1 afbb 70e0 8a3d 59c3 cc3c
000001e0: 8137 4b3e 728d 433b c6be 523d 8b9e 34be
000001f0: 7f51 de3d 3e85 f8bc 6502 cb3d 3e4d 65be
00000200: b720 a6bc 886b 00be 3f9c b03a ee0a da3d
00000210: 0305 13bc 397b a93d 7679 78bd b279 95bd
00000220: f2b0 81be 07b8 953d 6ab6 91bd d591 f83c
00000230: 17f5 d43c 0445 bfbd ee32 f53d d115 1dbd
00000240: 7f40 3abd 7994 51ba 4dba 2c3d f218 333e
00000250: 9071 223e fa63 bc3d fb5b 17bd dac5 8bbd
00000260: 4b65 2e3e 508e 413e 2ccf b03d cd65 213e
00000270: 4903 b03c 8c0f b83c 4e52 d93d 8d79 67bd
00000280: f48b 56be 9455 b7bd cb4a 913d 78c7 07be
00000290: 6c66 a8bd 66df f83d ee3a 7e3d b17b 90bc
000002a0: 5287 0c3d 1050 a03d e17a 0cbd a90a 0b3c
000002b0: 3272 f0bd 56df 92bd 00ce d73d e1bc 123d
000002c0: b64e 973d 663c 423d f9b5 ffbc aa77 51bb
000002d0: 17d1 aabd ec20 9cbd 45b7 063d 6143 d93b
000002e0: d1c2 8a3d 12ae 43bd 2cd1 1e3c c44c 493d
000002f0: 6667 e73c b9e2 e93d f035 0fbd 22b2 2ebe
00000300: 0d9d 78bd 24ae 503d 7dbc b4bc 59cb 18bc
00000310: a86f e0bd 1e81 a43c 3c23 bbbc 88fb 34bb
00000320: 77a5 80bd e3d9 7abc 29e0 05be a547 9c3d
00000330: 6bae 373d bea0 e33d 4109 5d3d 474b 04be
00000340: ec0d aa3d 1500 c03d 597d 0dbd 8c96 823c
00000350: 8666 503b b8ef 023d 2886 01be 34f0 02bc
00000360: 9874 e73d aa7d 803c a07f 7b3d 7299 27bd
00000370: 17f6 a03c 4057 25bd dc05 a13d 3c73 853d
00000380: be52 b2bd 27d1 2ebc 7f03 ddbb 37f4 4b3d
00000390: 144c 9dbd 6336 e4bd 7530 093d dc53 d43c
000003a0: aaa6 1abc 58be 903c 81c4 60bd 57c3 883d
000003b0: 62fe 10bd acf1 4cbd 2ada 15be c769 be3d
000003c0: 591c b0bc 0f7c 06be 69d8 d5bd 56ed bf3d
000003d0: d4a1 aabd 8dab acbc c560 b43d a193 0c3e
000003e0: d6ab e4bd 7879 eebd 8165 0f3d 5c3b 70bd
000003f0: fa9c 0f3a fbf2 acbd 346b ce3c 31d2 483d
0.0018272239 -0.07054485 -0.019371836 -0.039392956 0.014226968 -0.036194798 0.14900133 -0.039282084
0.024016185 -0.012568279 -0.023348916 0.099242955 -0.11088519 -0.0679346 0.003286287 0.052498933
-0.048686575 -0.07176888 0.090535626 0.0021386433 -0.121918954 -0.0890583 -0.017870238 -0.19600831
-0.09611024 0.025398556 -0.014273131 0.21385777 -0.037695527 0.07939051 0.04436139 -0.088919856
-0.06963195 -0.04132479 0.0040914263 0.08592108 0.020109016 0.017237185 -0.05235516 0.06447324
-0.014711357 -0.115297884 0.0199369 -0.13385293 0.06628705 0.16509807 0.06188025 -0.16883516
-0.0038081054 0.031196423 -0.11907894 -0.1583417 0.04325598 0.1528569 -0.07951524 -0.083280124
-0.14066526 -0.052196354 0.1417692 0.019447608 -0.0468912 -0.15639709 -0.020389276 -0.1152324
-0.13232319 0.109914966 0.1465834 0.039298218 0.05627979 -0.09693569 0.1535557 -0.062404275
-0.0045712455 -0.115382046 -0.043220934 -0.1639245 0.08825207 0.022755668 -0.108403444 -0.11010008
0.011396081 -0.09740888 -0.01991209 0.06974854 -0.049160954 0.216869 -0.09941066 0.19656976
0.073215075 -0.19409603 0.10269758 0.018057633 -0.009898047 0.007599038 0.08948853 0.04045982
0.12743509 0.034043115 -0.18550478 0.020283496 -0.1302348 -0.024597641 -0.030157544 0.22719918
0.08159786 -0.17574464 -0.060525354 0.08762242 -0.022616696 0.03547114 -0.06468012 -0.05692772
-0.03859944 0.15448111 -0.080760926 -0.04105602 0.0740195 -0.0053655733 0.06781089 0.024995493
0.19845392 0.0029838947 0.051451467 -0.17638604 0.10855388 -0.030336972 0.09912566 -0.22392747
-0.020279272 -0.1254102 0.0013474299 0.10646616 -0.008973363 0.08275456 -0.06066271 -0.07298602
-0.2533031 0.07310491 -0.07114871 0.030342976 0.025995774 -0.093393356 0.11972605 -0.038350884
-0.045471665 -0.00079948414 0.042169858 0.17489985 0.15863633 0.091987565 -0.036952954 -0.068248466
0.17030828 0.18901944 0.08633265 0.1576149 0.021485941 0.02246835 0.106114015 -0.056512404
-0.20951825 -0.089518696 0.07094344 -0.13259685 -0.082226604 0.12151985 0.06206792 -0.017637106
0.03430874 0.07827771 -0.034296874 0.008486428 -0.11740531 -0.07171504 0.10537338 0.03582466
0.0738806 0.04742088 -0.031214701 -0.0031962194 -0.08340662 -0.07623467 0.032889623 0.0066303466
0.067754395 -0.04777343 0.009693425 0.049145475 0.028247546 0.11420197 -0.03496355 -0.1706014
-0.06069665 0.050947323 -0.022062534 -0.009325826 -0.10958797 0.0200811 -0.02284395 -0.0027615745
-0.0628156 -0.015310737 -0.13073792 0.076308526 0.044844072 0.111146435 0.053963903 -0.12919341
0.08303437 0.09375016 -0.03454337 0.015940927 0.003179939 0.031966895 -0.12648833 -0.007991839
0.11301535 0.015684921 0.06140101 -0.04091782 0.019648595 -0.04036641 0.07862446 0.0651612
-0.08707188 -0.010669983 -0.0067448015 0.04979345 -0.076805264 -0.11143186 0.033493478 0.025918894
-0.00943915 0.017668888 -0.0548749 0.06677883 -0.03539885 -0.050035164 -0.14634004 0.09297519
-0.021497892 -0.13133262 -0.104416676 0.0937144 -0.083316475 -0.021077896 0.0880752 0.13728191
-0.111655876 -0.11644262 0.03500891 -0.05865036 0.00054784084 -0.08444782 0.025197603 0.04902858

linear2.bias f4 [100]
00000000: fb2e 9dbd ceee 55be e61e 46be 3d2e 41bd
00000010: c74f 733d 0680 52bd 1b03 a6be 58be 36be
00000020: ef73 973d d1cc d0bd da37 91be 04b9 6b3e
00000030: a201 623e 44b4 dfbe b2c8 79bd c032 a1bd
00000040: d73b 813c f997 9d3e 4fec fd3c 4ad8 a53d
00000050: ee9b 74bd 6277 963e 9c9e f03d ac26 eebc
00000060: e136 9d3e bb56 1a3d 1649 4dbe b24f edbd
00000070: 1f96 7c3e 333c 2f3e 606d 55be 0dba 403f
00000080: 3f4a 373e 2af4 ae3d bde2 4d3d 8945 82be
00000090: 1a5c cc3b faf1 c9bd 7f2c 03be 366b c83e
000000a0: acc7 39bd 28c5 c63d 749e ed3e b3cf b0bd
000000b0: 2de9 123d 18de 333d 558d c73e 9cc6 3bbd
000000c0: f1b5 213f c910 c93d d0d6 bb3a e022 a0be
000000d0: e0e7 50be 424e da3e 3cf3 d73d eb2b 6d3d
000000e0: 62af 893d 1b8b c7bd 638f 7cbe 77d5 24be
000000f0: 9ab0 4ebe 0016 9b3e 8173 3d3e 64a2 85bd
00000100: 250f 5b3e 065b 8e3e d19d c23c 09b0 cbbe
00000110: 30cf 04be ea79 0c3e 30a4 cebe c0f5 9ebc
00000120: 5ca2 31bd fb36 c13a f8b9 a33e b991 853e
00000130: 2d1e 6e3e 3bd6 d13e 177c 433d 8c6a 79be
00000140: 4217 5f3c 2b50 973d 0650 d23c 9aab 94be
00000150: a796 733d 3226 4f3e b222 9e3c a224 1b3e
00000160: 4684 f63d 947f 9e3e c2ca 8d3d 838c 11be
00000170: 2390 03bf ef8d a4be 18f1 20be 0782 a8bd
00000180: b350 a93e 6845 3d3e 68f1 793e 0a74 eabe
-0.076749764 -0.20891878 -0.19347724 -0.047163237 0.059402253 -0.051391624 -0.32424244 -0.17846048
0.073951595 -0.10195316 -0.28362924 0.23019797 0.22070935 -0.4369222 -0.060982414 -0.07871008
0.015775604 0.30780008 0.03099647 0.080978945 -0.05971902 0.29387957 0.11749002 -0.029071175
0.30705932 0.03768037 -0.20047411 -0.11587466 0.24666642 0.17112808 -0.20842505 0.7528389
0.17899416 0.08542664 0.050265063 -0.25443676 0.0062365653 -0.098606065 -0.12809943 0.39144295
-0.045356438 0.09705573 0.46409953 -0.086333655 0.035866905 0.043912977 0.38975015 -0.045843706
0.63168246 0.09817655 0.0014330987 -0.31276608 -0.20400953 0.4263783 0.1054444 0.05790321
0.06722905 -0.09743329 -0.24664073 -0.16097055 -0.20184556 0.30290222 0.18501092 -0.06525114
0.21392496 0.2780382 0.023756893 -0.39782742 -0.12969661 0.13718382 -0.4035964 -0.019404292
-0.04336773 0.0014741117 0.3197782 0.2608774 0.23253699 0.40983757 0.047725763 -0.2435705
0.013616385 0.07388338 0.025672924 -0.29037172 0.059469845 0.20229414 0.019303653 0.15150693
0.12036948 0.3095671 0.069234386 -0.14213757 -0.5139181 -0.32139537 -0.1571697 -0.08227926
0.3306938 0.18483508 0.24408495 -0.45791656

linear3.weight f4 [42, 100]
00000000: 47b5 a8bd 6eba 533d 9fee 823d bcd4 233b
00000010: 3599 36bd cafb c3bc f2e4 2dbd 3e9a 5d3d
00000020: f6c8 29be faed 2fbd b8d7 d13d 8573 94bc
00000030: ccbc 0d3e 8bb1 c3bc 58d9 5ebd dc83 973e
00000040: 05f1 51bd 9c96 edbd a6d8 553d a9f4 60be
00000050: 3db8 97be 937d 07be afdb 823d ee48 103e
00000060: ce5d a2bc c4ad 083e 5529 ce3c 8e9b eebd
00000070: 5d54 943c 9e86 b13b 5abe 6038 ab04 9d3d
00000080: 59f5 3abd db3a 75bd e520 883d dd3a 70bd
00000090: 0c10 0e3d cb26 71bb e37f 24bc e93c d23c
000000a0: 95cb e6bc e0a8 34bd 16fc 063b 275c 373d
000000b0: d383 8e3c c932 e0bd c98a a13d d9f2 85bd
000000c0: b710 d43c 88d5 d1bc 9faf 04be 32f3 1e3e
000000d0: 7d7d 86be 119d b1bd f9e9 d13d 208b 02be
000000e0: fb58 48be 6ab1 0f3d 18f3 1ebd c11e 953c
000000f0: 2d0e a43d 8adc b3bc 5866 7d3d 8f9b 5dbd
00000100: b76f cb3c d3e8 a33d 1190 a5bd 7eab 863e
00000110: acf5 543c 11ce 24be 206d febc b763 8fbe
00000120: d091 01bd 745c ecbc b1ef 01bd 8d0d ca3a
00000130: 2cd5 e4bd 0b5a a63d ccc5 3fbd 67c2 723d
00000140: 72d8 9dbd a9c8 88bd 17fc aa3d d1b5 9d3d
00000150: 8684 b8bb b231 7cbd 03ae 9cbd 0178 bfbd
00000160: 9798 e0bd a929 bfbd 3229 783d a21a 663d
00000170: 0cfc ad3c 6dc8 953d 0833 b33d c946 79bd
00000180: 05aa c6bd acee 17bb 67cc 6abc b20c 893d
00000190: c477 a6bd 368e e33b 61d6 1d3c f5ed d53b
000001a0: 1ae8 023e f36b 73bc 5257 dc38 88ad 8fbc
000001b0: e54c f3bb b73a 4dbc 3572 f53d 7f5d 8ebc
000001c0: fcb9 c63d 7fb4 c93b 83a6 90bd 6f54 863e
000001d0: 4e29 8bbd 7768 f6bd 4452 973d 1149 48be
000001e0: afcc 90be b56a 79bd d146 ac3d f6ae c13d
000001f0: 46ad 8bbc 5d15 003e 3723 2e3d 8b0b babd
00000200: fb6a db3c 2d07 833c 0ff0 3f3d bebc bb3d
00000210: 4c5f 87bd bc23 5dbb 19cf 933d 7520 6ebd
00000220: b182 27bc 463e 9b3c f385 383b 4889 00bb
00000230: 0b06 f6bc 6df3 56bd f6a6 093d b0ca 0539
00000240: 641f b8bd 1a91 9cbd 6aeb c43d a0cd b8bd
00000250: 8e55 543d 288b d03c 3957 17be d2a6 7c3d
00000260: 7129 c3bd a21d acbd d5eb 233d ff30 e6bd
00000270: f237 31be c8d2 5e3d 00f0 e4ba da4f db3b
00000280: ae4c f73c df05 b1bc e48c 9f3d d86f 9fbd
00000290: f1e6 da3d 5774 573d 59d6 23bc 3e7d 673e
000002a0: 7d7a 733d 5524 5cbe f077 d73c 79ad 7dbe
000002b0: e626 45bd 45b1 803c 09b5 7ebd 912a 0d3c
000002c0: ff54 17be 51f2 a53c c712 20bd fb8b 833d
000002d0: 7d4a a0bd 4907 bbbd ba89 c63d 920c 073e
000002e0: 6dfe 35bc e796 33bd a393 75bd c2c1 18be
000002f0: 296f 43be 98f9 06be 365d 2e3d 8663 d93d
00000300: d4f1 8d3c 1980 863d 8dba 9b3d 72a4 113c
00000310: 745b 79bd 3b7e 2cbd 9b9e acbc c017 bb3d
00000320: 3e1e 92bd 14ed 1bbe 75e3 9a3d 93a2 3cbd
00000330: 64e8 983e f2d7 99bd 1cd0 43bc c376 c3bc
00000340: c381 bbbb ec8b 43bd 7123 c1bc 06ff d63c
00000350: b1aa c13d afdf 0bbc 64b9 d7bd c4b6 3b3e
00000360: 7e6c 03be 41c8 26be 233f 803d f25b 23be
00000370: 5ea7 acbe 8d29 a5bd 5271 003e 0754 1e3e
00000380: 3636 573d 62cd b93d 721e a63d 4f00 9f3c
00000390: c289 04bd 77e6 48bb e62f 7e3c e823 953d
000003a0: 3ad2 0b3c d5b8 02be 4fbe ba3d ce0c e43b
000003b0: 817a 403d 4177 4ebc 574e 44bd c81f 86bd
000003c0: 479b 823d 02f0 adbd 48e3 f83d 3d0d 203d
000003d0: e8af 88be bf9a 973c 9a62 b13d a5d7 a6bc
000003e0: 3018 113d 50a9 e9bc bc09 4abe b9b5 09be
000003f0: 9e75 583e 944b 4bbd 04e9 5abc 5425 4bbd
-0.08237701 0.051691465 0.063931696 0.0024998626 -0.044579703 -0.023923773 -0.042454667 0.054102175
-0.16580567 -0.04295156 0.10246223 -0.01812149 0.13841552 -0.02388837 -0.054406494 0.29592788
-0.051255245 -0.11600992 0.052208565 -0.2196833 -0.2963275 -0.13231497 0.063895576 0.1409032
-0.01982012 0.13347536 0.025166193 -0.116507635 0.018106634 0.005417659 5.358304e-05 0.07666906
-0.045644138 -0.059870582 0.06646899 -0.058649886 0.034683272 -0.0036796804 -0.010040256 0.02566381
-0.028173247 -0.044106364 0.0020597032 0.044765618 0.017396843 -0.109471865 0.07887799 -0.0654046
0.025886877 -0.025614515 -0.12957619 0.15522459 -0.26267615 -0.08672536 0.10249705 -0.12748384
-0.19565193 0.035081305 -0.03880605 0.018203141 0.08010516 -0.021955747 0.06186518 -0.05410343
0.024833543 0.08003392 -0.08084119 0.26302713 0.012998026 -0.16094233 -0.031057894 -0.28005764
-0.0316332 -0.028852679 -0.03172273 0.0015415415 -0.11173472 0.08122643 -0.046819493 0.059267428
-0.07707299 -0.06678898 0.083488636 0.07700694 -0.0056310324 -0.06157083 -0.076503776 -0.09349061
-0.10966604 -0.09334118 0.060586162 0.056177743 0.02123835 0.07313619 0.08749968 -0.06085852
-0.097003974 -0.002318303 -0.01433096 0.066918746 -0.08128312 0.006944443 0.009633631 0.006528611
0.12783852 -0.01485728 0.00010506682 -0.0175388 -0.007424938 -0.012526206 0.11984674 -0.017378567
0.097034425 0.00615555 -0.070630096 0.26236293 -0.067949876 -0.12031644 0.07388738 -0.19559123
-0.2828116 -0.06089278 0.08411945 0.09457199 -0.017050397 0.1250815 0.042514052 -0.09084233
0.02678441 0.015994633 0.046859797 0.09166859 -0.06609973 -0.0033743223 0.07217235 -0.058136422
-0.01022403 0.018950593 0.0028156012 -0.0019613076 -0.030032178 -0.052478243 0.033606492 0.00012759375
-0.08990362 -0.076448634 0.09615214 -0.09023595 0.051839404 0.02545698 -0.14779367 0.06168253
-0.09529389 -0.084040895 0.04001983 -0.11239814 -0.17306498 0.054400235 -0.0017466545 0.0066928687
0.03018793 -0.021609245 0.07790545 -0.077850044 0.1068858 0.052601185 -0.009999835 0.2260637
0.059442986 -0.21498235 0.026302308 -0.24773206 -0.0481328 0.015709529 -0.062184367 0.008616106
-0.14778517 0.020257147 -0.039080407 0.064231835 -0.078267075 -0.09132249 0.09694238 0.13188389
-0.011108023 -0.043845084 -0.05995525 -0.14917663 -0.19085373 -0.1318115 0.04256936 0.10614686
0.017327227 0.065674014 0.07603941 0.0088893045 -0.060878232 -0.04211257 -0.021071723 0.09135389
-0.071346745 -0.15227157 0.07562915 -0.04605348 0.298648 -0.075118914 -0.011951473 -0.023860341
-0.005722256 -0.04774086 -0.02357647 0.026244652 0.09456385 -0.008537217 -0.10533407 0.18331438
-0.12834355 -0.16287328 0.062620424 -0.15953043 -0.3372144 -0.08064566 0.12543228 0.15461741
0.052541934 0.09072377 0.08111276 0.019409327 -0.03235794 -0.0030654946 0.01551435 0.07282239
0.008534009 -0.1276582 0.0911833 0.0069595343 0.04699183 -0.012601675 -0.047926273 -0.065490305
0.06377273 -0.084930435 0.121527255 0.039075125 -0.26696706 0.018506406 0.08661385 -0.0203665
0.035423458 -0.028523117 -0.19730276 -0.13448228 0.21138617 -0.049632624 -0.013361219 -0.049596146

linear3.bias f4 [42]
00000000: 838d b43d a1f6 463d 88b5 58bc a09b 053e
00000010: 1f94 8f3e 27b4 e63d 1af8 8b3e 2bb4 973e
00000020: aaf8 903e 6aee 983e 075d 9d3e 0b5a cf3e
00000030: 99ab d33e a9b6 c23e e708 be3e d58d c83e
00000040: bae7 873e 7c5e af3e a92b 0b3d 4888 043f
00000050: a97e 013f 0e31 053f d299 e13e d0d0 7d3e
00000060: 9fd8 223e 60f4 ca3e 05a1 c53e 2dc1 f43e
00000070: 1bb3 ae3e 5036 c63e 049a c83e c12b ab3e
00000080: 556e 623f 9d1c 283f 958c e73e 6220 a03d
00000090: 6529 933e c5f2 ee3e 1b87 f33e 643a d83e
000000a0: 0562 6e3e 6dc4 193e
0.08816054 0.048575047 -0.013226874 0.13047647 0.28042695 0.1126483 0.27337724 0.29629645
0.28314716 0.29869395 0.30735037 0.40498385 0.41341856 0.38029984 0.37116167 0.3917071
0.2654398 0.34251773 0.033977184 0.5177045 0.50583893 0.52027977 0.44062668 0.24786687
0.15902947 0.39639568 0.3859941 0.4780363 0.34121022 0.38713312 0.39180005 0.3343182
0.88449603 0.6566866 0.45224443 0.078186765 0.2874252 0.46669593 0.47564015 0.4223205
0.23279579 0.15016337
