saved_model_for_8parameters.pt (torch, 65047 bytes, 6 tensors)

linear1.weight f4 [100, 13]
000000 07 ea 4a be 74 1e a2 3e 65 e8 e4 3d 96 74 88 3d
       -0.19815837 0.3166386 0.11177138 0.06662862
000010 66 c8 0c be 92 3a 03 3f db b2 85 be 4c 39 e2 bd
       -0.13748321 0.51261246 -0.26113018 -0.11046085
000020 81 2b 14 3d c8 e4 ad 3b 2e f1 31 be fa e1 9e 3d
       0.0361743 0.005306814 -0.17377159 0.07757945
000030 83 47 7e bc 31 d1 99 3e 03 84 5e 3e 82 59 25 be
       -0.015519979 0.30042413 0.21730046 -0.16147426
000040 ae 3b f2 be 1f e3 f8 3d 11 37 77 be 9a 82 7d bb
       -0.47311157 0.12152695 -0.241421 -0.003868258
000050 c6 73 95 bc 56 d3 9f be b9 e9 75 3d cc 46 17 3e
       -0.018243682 -0.31215924 0.06003735 0.147731
000060 9a 63 d7 3d 63 b4 f8 3d ec 48 16 be 7d d0 e3 3e
       0.10517044 0.12143781 -0.14676255 0.44495
000070 3d 32 ab 3e a4 3b 9b 3c 48 66 c8 be 82 de c6 bc
       0.33436766 0.018949337 -0.39140534 -0.024276022
000080 9b f1 be be 93 4d de 3e 55 65 5d be f1 44 e1 3d
       -0.37293705 0.4341856 -0.21620686 0.10999478
000090 4c 11 0b 3e 33 1f c8 3a 73 90 98 3e aa a1 b1 be
       0.13580817 0.0015268087 0.29797706 -0.34693652
0000a0 39 20 c5 3e 9b 1f cb be 1f c7 87 bd ba 76 0e bd
       0.38501146 -0.3967255 -0.06629776 -0.034781195
0000b0 93 99 8d 3c bc a9 ce 3e e7 8a 63 be a6 55 97 be
       0.017285144 0.40363872 -0.22220956 -0.29557532
0000c0 a4 cc 64 be 56 fe 12 3e 11 9c 45 3e d7 8b 9e be
       -0.22343689 0.14354834 0.19297816 -0.30966064
0000d0 5f 35 83 3e e3 7a 81 be 37 b4 2d 3e da ed 89 be
       0.25626656 -0.25289068 0.16963278 -0.2693928
0000e0 0e c0 a4 bd 86 e8 ed be f6 13 a5 3e e4 b3 b2 3e
       -0.08044444 -0.46466464 0.3224179 0.3490287
0000f0 a0 94 8a bd 96 cf 76 be 92 53 8e 3e 00 10 23 be
       -0.06766629 -0.24102625 0.27798134 -0.15924072
000100 49 e5 8c 3e a2 28 fe be a2 ca 15 3e b1 89 ac 3b
       0.2751868 -0.49640375 0.1462808 0.0052654375
000110 48 24 d0 bd c7 bf 82 3e a3 6a af be ae f6 08 bf
       -0.1016317 0.2553694 -0.34261045 -0.53501403
000120 27 60 91 bd 3b 4b 04 bd 5c d7 40 3d 5e c9 76 be
       -0.07098418 -0.032298308 0.047080383 -0.24100253
000130 4e 6f 55 be 2c d8 70 be ad 80 86 3d 17 7e ab 3e
       -0.2084324 -0.23519963 0.06567512 0.33494636
000140 dc e1 96 be 30 47 67 3e b1 14 0b be 80 a9 c5 3e
       -0.29469192 0.2258575 -0.13582112 0.3860588
000150 6e 86 ec be 7a 26 76 3d 98 d5 d2 be aa da f2 be
       -0.46196312 0.060095288 -0.41178584 -0.47432452
000160 b4 fd 84 be c2 b8 a7 be 4e b0 d7 be 1b 77 14 3e
       -0.2597481 -0.32758147 -0.42126697 0.1449856
000170 de 87 32 be 7b dc 25 bf 55 d2 de 3e 52 19 9f bd
       -0.17434642 -0.6478955 0.43519846 -0.07768501
000180 22 82 4e 3e 25 0e 27 3e 26 1f af 3e ca 15 02 bf
       0.20166829 0.1631399 0.34203452 -0.508145
000190 05 44 10 bf d0 bc 98 bd ac 7c 0f bf 91 dc c9 be
       -0.5635379 -0.07457888 -0.5604961 -0.3942609
0001a0 87 43 f8 bc d6 e2 98 3c 2f 31 22 3e 91 db c1 3e
       -0.030305637 0.018662851 0.15839075 0.37862828
0001b0 9d 89 e7 3e 8e 59 aa 3e eb 6f 67 be d0 e8 7b bd
       0.45222178 0.3327145 -0.22601287 -0.061501324
0001c0 c2 03 15 3e e1 64 97 bd ce 93 1e be 50 21 d3 bc
       0.14552215 -0.07392288 -0.1548607 -0.02577272
0001d0 b0 f4 83 bd 76 7f 1a be 3c 81 38 3e d5 97 e1 bc
       -0.06443155 -0.15087685 0.18018049 -0.02753822
0001e0 98 70 eb 3d c1 d2 21 be 54 b4 ba 3e 5c 18 03 3e
       0.11496085 -0.15803052 0.36465704 0.12802261
0001f0 a7 7e 5d 3d ff c6 9c bd da fb 18 be c5 ae 3b be
       0.054075863 -0.07655143 -0.14939824 -0.18328388
000200 d1 55 02 3e 9d f5 0b be 2e 84 0e 3e 51 f1 cd 3e
       0.12728049 -0.13667913 0.1391761 0.40223172
000210 e8 6b cd 3d 01 a1 d2 be 3d 6c da be 9d 87 0b 3d
       0.10030347 -0.4113846 -0.42660704 0.034064878
000220 20 7c ab 3d 08 41 9d bb ce 29 34 be 2d 5c 02 3d
       0.08373284 -0.004799012 -0.17594072 0.031826187
000230 19 65 88 bd 29 83 4f 3e 23 cb c0 3b 27 4a 9e bd
       -0.06659908 0.20264877 0.005883591 -0.07728987
000240 fb 54 b7 3e f6 df 3d bd 4e f5 de bd ae 4a 69 3d
       0.35807022 -0.046356164 -0.10886632 0.056955986
000250 7a b2 a1 be fb b4 32 be 32 4c 0a bd 0f bc 74 3e
       -0.3158148 -0.17451851 -0.03376407 0.23899864
000260 8f 06 b6 3a 25 b0 bd 3e d2 e4 40 3e d4 68 4a 3e
       0.0013887453 0.3704845 0.18837288 0.19766551
000270 13 75 a3 3d 60 6b 5f be 8c 8b 01 be 35 72 ee bd
       0.079813145 -0.21818304 -0.12650889 -0.11642877
000280 c0 a5 41 3d 47 bc b7 3d 94 52 8e be ff 46 1c 3f
       0.047277212 0.08971458 -0.27797377 0.6104583
000290 af 08 6f 3e 10 b4 37 be a3 eb 11 be 1f 34 ad 3e
       0.23343156 -0.17939782 -0.14250045 0.33828828
0002a0 14 ac 2e 3e 35 af d6 3e c8 91 91 3e 6c 36 d3 3e
       0.1705783 0.41930547 0.28431535 0.41252458
0002b0 8f de 43 be e6 54 a2 be 19 36 af be 53 be 62 3e
       -0.19127868 -0.31705397 -0.3422096 0.22142915
0002c0 4c b3 ac 3c b5 08 c4 3e 94 38 06 be 33 35 98 3e
       0.02108159 0.38287893 -0.1310752 0.29728088
0002d0 68 03 bf 3e 55 ae 94 3e c8 5d 44 3d 22 ba e4 3d
       0.37307286 0.29039255 0.047941 0.111683145
0002e0 f9 a4 51 be 00 0f 01 bf a2 5b 32 3d 68 b7 54 be
       -0.20473088 -0.50413513 0.04354442 -0.20773089
0002f0 6b 35 63 bd 21 66 3e be 2b 26 ca bd 97 9c 9f 3e
       -0.055470865 -0.18593647 -0.09870561 0.31174156
000300 46 8a 13 3e ea b9 a2 3e 86 15 a2 bd d1 85 14 3e
       0.14408216 0.31782466 -0.079142615 0.14504172
000310 e6 0b bb 3e 6f fc 84 bd 7f 04 0f bf b4 1b 0b 3e
       0.36532515 -0.064934604 -0.55866235 0.13584787
000320 70 21 ec 3e d4 16 e8 bd 76 65 e0 3e e0 52 13 3e
       0.4611926 -0.11332479 0.4382741 0.14387083
000330 1d eb 2d be 99 6b 64 be e7 00 4e be 93 ba e7 3d
       -0.1698422 -0.2230667 -0.20117532 0.11314883
000340 9f 26 87 be f2 b9 ef be 03 5c b7 3e 9a b5 af bd
       -0.26396653 -0.46821553 0.35812387 -0.085795596
000350 ab 31 0e 3e 25 b0 55 bf 75 a1 1f be 21 8a 98 3e
       0.13886134 -0.834719 -0.15588935 0.29792884
000360 11 9a 87 3e 69 9b af bd ff e3 8d 3e bc 29 1a 3e
       0.2648473 -0.08574564 0.2771301 0.15054983
000370 cf 8e 34 3e 8d 4c 3c 3f bb 3e e4 be 35 c4 c3 3e
       0.17632602 0.7355431 -0.4457911 0.38235632
000380 ae 4f 63 bd 77 f1 ec be 42 e4 1b 3e 11 21 47 be
       -0.05549591 -0.46277973 0.15223792 -0.19446208
000390 d4 bb 8f be 3d f2 51 3e 59 8b 49 be b5 37 8c 3e
       -0.2807299 0.20502563 -0.19682063 0.2738625
0003a0 e3 35 38 3e e1 14 c4 bc ea 23 00 3e c3 5e 66 3c
       0.17989306 -0.023935737 0.125137 0.014060679
0003b0 f9 6e 9e bd 30 5c b0 3d 36 94 6a 3e 60 de de 3a
       -0.0773601 0.08611333 0.229081 0.0017003529
0003c0 b5 21 fa bd d9 63 99 be fa 42 1c be 1c d5 21 3e
       -0.1221346 -0.2995899 -0.15259925 0.15803951
0003d0 ae 69 45 3e 28 b7 ab bd 94 7a 03 3e 89 95 fa 3e
       0.19278595 -0.08384544 0.12839729 0.4894221
0003e0 72 73 a5 be 15 14 ab 3e 63 ec e8 3d 59 c5 9a bd
       -0.3231464 0.3341376 0.11373212 -0.07557172
0003f0 95 b6 7c be cb 22 be 3e f6 31 35 3e 8b 49 db 3d
       -0.24679025 0.3713592 0.1769484 0.107073866

linear1.bias f4 [100]
000000 83 45 c0 be 0f 23 57 be d1 bc 57 be fe 56 53 be
       -0.37553033 -0.21009468 -0.21068121 -0.20638654
000010 24 7c 64 3e df c7 ab 3e 34 5e 45 bb cb 65 9b bd
       0.22312981 0.33550927 -0.0030115964 -0.07587775
000020 5e c4 26 bf 5c b9 bd be ce 34 05 be 63 3e aa be
       -0.6514338 -0.3705548 -0.13008425 -0.33250722
000030 27 f9 a2 bd 2e 57 55 3e c3 c1 60 3e 2f 96 41 bc
       -0.07957678 0.20834038 0.21948914 -0.011815592
000040 f5 43 a9 be 66 aa 9e 3e ee bb 0e bf fa b2 86 be
       -0.3305966 0.3098938 -0.5575551 -0.26308423
000050 3a 83 17 3f c6 ee d0 3e 0e 77 c1 3c 3d a2 77 bd
       0.5918461 0.4080717 0.02361634 -0.060457457
000060 68 5a e4 bd 46 8a 0a bf 8b 8d 2b 3e ed 1c b9 3d
       -0.11150056 -0.5411724 0.16753213 0.0903872
000070 9c a4 31 be 7c 81 a6 3e de 41 84 be 4a 60 a4 3e
       -0.1734795 0.32520664 -0.25831503 0.32104713
000080 20 fa bb bd e6 1c 4b 3e f9 d0 97 3e a9 80 8f be
       -0.09178567 0.19835243 0.2965162 -0.28027847
000090 07 db 39 be d5 fc ef 3c 48 d1 71 3e 66 84 55 3c
       -0.18149959 0.029295364 0.2361499 0.0130320545
0000a0 9b bb 48 3f c4 ff e1 bd 55 a9 6f be e9 61 d8 3d
       0.78411263 -0.110351115 -0.23404439 0.1056555
0000b0 da 35 35 bf ae 4f ab be a4 66 bc be 6b 1d 0a be
       -0.70785296 -0.33459228 -0.3679706 -0.13487785
0000c0 7e 3d a6 be 2a a3 dd bd 8f 46 a9 3e 32 46 2f be
       -0.3246879 -0.10822137 0.33061644 -0.17116621
0000d0 35 1c 4a 3e 17 a3 03 bf 70 71 95 3e 81 b3 ed be
       0.19737323 -0.5142073 0.29188108 -0.46426013
0000e0 3b b4 3a 3f 54 29 14 3f d9 0d 66 bd 3c 22 35 bc
       0.7293126 0.5787556 -0.05616555 -0.011055525
0000f0 f9 57 1c be 11 01 d7 3e f8 4d d2 3d 04 8b e4 3e
       -0.15267934 0.41993 0.102687776 0.4463731
000100 db ef 99 3d 23 8e f2 be 9c 5d af 3e 95 1c 4c 3c
       0.07516452 -0.47374067 0.34251106 0.012457986
000110 10 b7 b3 3d 6a f6 70 be 08 37 00 bf 2f 3d 40 bf
       0.08775151 -0.235315 -0.5008397 -0.7509336
000120 d8 cc 9e 3e 3e 69 76 3e cc 0a f1 be 3d 95 90 3e
       0.31015658 0.24063584 -0.4707855 0.2823886
000130 b3 aa d4 3e 43 d0 5e be 73 6b 4d be d4 1f 9e 3e
       0.41536483 -0.21759133 -0.2006052 0.30883658
000140 40 7d c6 bd 41 2c 3b be 64 d9 ed bd d6 65 5d 3e
       -0.09691858 -0.182786 -0.116137296 0.21620879
000150 8e 74 17 3e fb 9c 94 be 15 5f aa bd 98 9f 92 be
       0.14790556 -0.29026017 -0.08318917 -0.28637385
000160 bd 30 96 be 71 d1 41 3f ea c0 b8 3c d7 71 d6 be
       -0.2933406 0.7571021 0.022552926 -0.41883728
000170 99 2b 6e be e1 a4 ad be bc 18 93 be 82 1b bd 3e
       -0.23258819 -0.33914855 -0.28729808 0.3693505
000180 e2 95 fc 3e ee fd ac 3d e3 73 ec 3e 04 0c 8e 3e
       0.49333102 0.08446871 0.46182165 0.27743542

linear2.weight f4 [100, 100]
000000 4b 7d ef 3a c4 79 90 bd 51 b0 9e bc d9 59 21 bd
       0.0018271593 -0.07054475 -0.019371184 -0.039392326
000010 85 16 69 3c c2 40 14 bd ed 93 18 3e 05 e8 20 bd
       0.0142265605 -0.03619457 0.14900179 -0.03928377
000020 02 bc c4 3c 8b ea 4d bc 13 46 bf bc a8 3f cb 3d
       0.02401543 -0.012568126 -0.023348844 0.09924251
000030 39 17 e3 bd c3 20 8b bd 17 5f 57 3b cd 08 57 3d
       -0.11088414 -0.06793358 0.0032863074 0.052498627
000040 ff 6b 47 bd c6 fb 92 bd fb 6a b9 3d 3f 21 0c 3b
       -0.048686977 -0.07176928 0.09053608 0.002138212
000050 d1 b0 f9 bd a7 64 b6 bd ac 64 92 bc ac b6 48 be
       -0.12191928 -0.08905917 -0.01787027 -0.19600934
000060 53 d5 c4 bd e0 10 d0 3c 41 d7 69 bc d6 fd 5a 3e
       -0.09611001 0.025398672 -0.014272512 0.21385893
000070 17 67 1a bd 99 97 a2 3d be b4 35 3d f3 1b b6 bd
       -0.03769597 0.07939071 0.044361822 -0.0889205
000080 bc 9b 8e bd 63 44 29 bd 0a 13 86 3b 42 f7 af 3d
       -0.06963298 -0.041324984 0.004091625 0.085920826
000090 ab bc a4 3c 0e 34 8d 3c b3 72 56 bd 8f 0a 84 3d
       0.020109495 0.017236736 -0.05235548 0.064473264
0000a0 d7 0b 71 bc 90 21 ec bd c0 53 a3 3c b6 10 09 be
       -0.0147122955 -0.11529839 0.019937396 -0.13385281
0000b0 c9 c1 87 3d 53 0f 29 3e ab 75 7d 3d e8 e2 2c be
       0.066287585 0.16509752 0.061879795 -0.16883433
0000c0 f5 8b 79 bb 1e 8f ff 3c a4 df f3 bd 32 24 22 be
       -0.0038077806 0.031196173 -0.119078904 -0.1583412
0000d0 e2 2b 31 3d 9c 86 1c 3e f8 d8 a2 bd 85 8e aa bd
       0.04325474 0.15285724 -0.0795154 -0.08327965
0000e0 a0 0a 10 be 64 cd 55 bd ca 2b 11 3e a4 53 9f 3c
       -0.14066553 -0.05219783 0.1417686 0.019449063
0000f0 b0 10 40 bd 5f 26 20 be d1 09 a7 bc 9d ff eb bd
       -0.046890914 -0.15639637 -0.020390423 -0.11523364
000100 7e 7f 07 be 1b 1a e1 3d cc 19 16 3e 76 f7 20 3d
       -0.13232228 0.10991307 0.14658278 0.039298497
000110 40 85 66 3d 3b 86 c6 bd b3 3d 1d 3e 10 9c 7f bd
       0.05627942 -0.09693571 0.15355568 -0.062404692
000120 8d c7 95 bb 66 4d ec bd dc 08 31 bd 40 dc 27 be
       -0.0045709074 -0.115382 -0.04322134 -0.16392612
000130 c2 bd b4 3d e1 69 ba 3c c7 02 de bd af 7b e1 bd
       0.08825256 0.022755565 -0.108403735 -0.11009919
000140 ba b6 3a 3c 2b 7e c7 bd 48 1f a3 bc 25 d8 8e 3d
       0.0113961045 -0.097408615 -0.019912377 0.0697482
000150 01 5c 49 bd c1 12 5e 3e 91 97 cb bd ac 49 49 3e
       -0.049160007 0.21686842 -0.099410184 0.1965701
000160 da f1 95 3d b3 c0 46 be 8a 53 d2 3d 2b ee 93 3c
       0.0732152 -0.19409446 0.1026984 0.018057903
000170 27 2e 22 bc fa 07 f9 3b b8 45 b7 3d e0 b8 25 3d
       -0.009898699 0.007599828 0.08948845 0.040459514
000180 31 7e 02 3e e8 70 0b 3d eb f4 3d be 38 2a a6 3c
       0.1274345 0.034043223 -0.1855046 0.020283803
000190 38 5c 05 be 80 82 c9 bc f0 0d f7 bc bd a6 68 3e
       -0.1302346 -0.02459836 -0.030158013 0.22719856
0001a0 4a 1d a7 3d 45 f6 33 be 62 eb 77 bd 28 73 b3 3d
       0.08159883 -0.17574413 -0.060527213 0.08762199
0001b0 f2 47 b9 bc e2 4a 11 3d 4e 77 84 bd e3 2d 69 bd
       -0.022617314 0.035471804 -0.06468068 -0.056928527
0001c0 0c 1a 1e bd 81 30 1e 3e a5 65 a5 bd d3 2a 28 bd
       -0.03859906 0.1544819 -0.08076028 -0.041056465
0001d0 7b 97 97 3d eb d0 af bb bc e0 8a 3d a8 c2 cc 3c
       0.074019395 -0.005365481 0.06781146 0.024995163
0001e0 96 37 4b 3e 88 86 43 3b 32 be 52 3d 48 9e 34 be
       0.19845423 0.0029834826 0.051450916 -0.17638505
0001f0 2f 51 de 3d f8 84 f8 bc 22 02 cb 3d 33 4d 65 be
       0.10855328 -0.030336842 0.09912516 -0.2239273
000200 81 1d a6 bc 48 6b 00 be 9c 9f b0 3a b1 0b da 3d
       -0.02027774 -0.12540925 0.0013475302 0.10646761
000210 e7 05 13 bc 2a 7b a9 3d 35 78 78 bd 06 79 95 bd
       -0.008973575 0.08275445 -0.060661513 -0.07298474
000220 f0 b0 81 be de b7 95 3d 4c b6 91 bd 9e 90 f8 3c
       -0.25330305 0.073104605 -0.071148485 0.030342396
000230 cf f6 d4 3c 42 45 bf bd 9f 32 f5 3d f1 14 1d bd
       0.025996594 -0.09339382 0.11972546 -0.03835005
000240 17 40 3a bd f0 97 51 ba 0b ba 2c 3d 0e 19 33 3e
       -0.045471277 -0.0007995358 0.042169612 0.17490026
000250 8c 71 22 3e ed 63 bc 3d a0 5b 17 bd 55 c6 8b bd
       0.15863627 0.09198747 -0.036952615 -0.06824938
000260 3d 65 2e 3e 92 8e 41 3e 1c cf b0 3d f6 65 21 3e
       0.17030807 0.18902043 0.08633253 0.15761551
000270 6d 02 b0 3c c2 0f b8 3c 6e 52 d9 3d dc 79 67 bd
       0.021485532 0.022468451 0.10611425 -0.0565127
000280 19 8c 56 be e5 55 b7 bd 78 4a 91 3d 55 c7 07 be
       -0.2095188 -0.0895193 0.07094282 -0.13259633
000290 94 66 a8 bd f7 df f8 3d 6d 3a 7e 3d 5f 7b 90 bc
       -0.0822269 0.12152093 0.062067438 -0.017636953
0002a0 28 87 0c 3d 17 50 a0 3d ec 7b 0c bd e3 0d 0b 3c
       0.034308583 0.07827776 -0.03429787 0.008487198
0002b0 61 72 f0 bd b6 df 92 bd cc cd d7 3d 34 bc 12 3d
       -0.11740566 -0.07171576 0.105372995 0.035824016
0002c0 a5 4e 97 3d 06 3c 42 3d 36 b6 ff bc 98 73 51 bb
       0.07388047 0.047420524 -0.031214815 -0.0031959768
0002d0 bd d0 aa bd 10 21 9c bd d2 b7 06 3d bf 42 d9 3b
       -0.08340595 -0.07623494 0.03289015 0.006630271
0002e0 a5 c2 8a 3d 75 ad 43 bd 33 cd 1e 3c c2 4e 49 3d
       0.06775407 -0.047772843 0.009692478 0.049147375
0002f0 53 69 e7 3c 44 e3 e9 3d 8c 36 0f bd ff b1 2e be
       0.028248465 0.114203006 -0.03496413 -0.17060088
000300 f3 9d 78 bd 9c ae 50 3d 47 bc b4 bc ff c8 18 bc
       -0.060697507 0.05094777 -0.022062434 -0.009325265
000310 79 6f e0 bd 64 7e a4 3c 8c 22 bb bc 63 fd 34 bb
       -0.10958762 0.020079799 -0.022843622 -0.002761685
000320 72 a5 80 bd 2c da 7a bc 65 e0 05 be ae 46 9c 3d
       -0.06281556 -0.015310805 -0.13073881 0.076306686
000330 c5 ad 37 3d 77 a0 e3 3d a2 08 5d 3d 5f 4b 04 be
       0.044843454 0.111145906 0.05396331 -0.12919377
000340 2d 0e aa 3d 2f 00 c0 3d 3b 7d 0d bd 6b 96 82 3c
       0.08303485 0.09375035 -0.034543257 0.015940866
000350 0f 64 50 3b e4 f0 02 3d 26 86 01 be 2b ed 02 bc
       0.003179792 0.031968012 -0.1264883 -0.007991116
000360 76 74 e7 3d f6 7c 80 3c d3 7f 7b 3d 26 99 27 bd
       0.1130151 0.015684586 0.0614012 -0.040917538
000370 b8 f6 a0 3c 56 57 25 bd 3a 06 a1 3d 3b 73 85 3d
       0.019648895 -0.040366493 0.07862516 0.06516119
000380 81 53 b2 bd 66 ce 2e bc 86 01 dd bb ff f3 4b 3d
       -0.08707333 -0.010669326 -0.0067445664 0.04979324
000390 d8 4b 9d bd 72 36 e4 bd f5 30 09 3d 01 55 d4 3c
       -0.07680482 -0.11143197 0.033493955 0.02591944
0003a0 c2 a5 1a bc d1 bc 90 3c 34 c5 60 bd 1b c3 88 3d
       -0.009438934 0.01766816 -0.054875568 0.066778384
0003b0 47 fe 10 bd f8 f1 4c bd 26 da 15 be a4 69 be 3d
       -0.035398748 -0.050035447 -0.14633998 0.09297493
0003c0 d1 1c b0 bc ef 7b 06 be 56 d8 d5 bd 2d ed bf 3d
       -0.021498116 -0.13133214 -0.104416534 0.093714096
0003d0 89 a1 aa bd 82 ab ac bc 60 61 b4 3d b7 93 0c 3e
       -0.08331592 -0.021077875 0.08807635 0.13728224
0003e0 e9 ab e4 bd 1b 79 ee bd 75 66 0f 3d 7e 39 70 bd
       -0.11165602 -0.11644193 0.03500982 -0.05864858
0003f0 f7 a1 0f 3a 46 f2 ac bd e8 6c ce 3c 18 d1 48 3d
       0.0005479152 -0.084446475 0.025198415 0.049027532

linear2.bias f4 [100]
000000 5f 2e 9d bd 75 ef 55 be ec 1e 46 be ec 2e 41 bd
       -0.0767486 -0.20892127 -0.19347733 -0.04716389
000010 9f 4f 73 3d 66 7f 52 bd 99 03 a6 be 21 be 36 be
       0.059402104 -0.051391028 -0.3242462 -0.17845966
000020 de 73 97 3d d4 cc d0 bd f3 37 91 be f3 b8 6b 3e
       0.07395147 -0.10195318 -0.28362998 0.23019771
000030 6c 01 62 3e 56 b4 df be 51 ca 79 bd b2 32 a1 bd
       0.22070855 -0.43692273 -0.06098396 -0.078709975
000040 54 3a 81 3c 90 97 9d 3e 39 ec fd 3c 16 d8 a5 3d
       0.015774883 0.30779696 0.030996429 0.08097856
000050 62 9b 74 bd a1 77 96 3e 56 9d f0 3d cc 28 ee bc
       -0.059718497 0.29388145 0.117487594 -0.029072188
000060 e1 36 9d 3e 99 55 1a 3d e1 48 4d be b4 4f ed bd
       0.30705932 0.03767929 -0.20047332 -0.11587468
000070 15 96 7c 3e 7e 3b 2f 3e 45 6d 55 be 22 ba 40 3f
       0.24666627 0.17112538 -0.20842464 0.75284016
000080 d9 49 37 3e 60 f4 ae 3d 5c e2 4d 3d 4b 45 82 be
       0.17899264 0.085427046 0.0502647 -0.2544349
000090 9b 5c cc 3b 5d f1 c9 bd 88 2c 03 be 0f 6b c8 3e
       0.0062366254 -0.098604895 -0.12809956 0.3914418
0000a0 84 c7 39 bd 21 c5 c6 3d 77 9e ed 3e 28 d0 b0 bd
       -0.04535629 0.09705568 0.46409962 -0.08633453
0000b0 29 e9 12 3d 2f de 33 3d 8a 8d c7 3e bc c6 3b bd
       0.03586689 0.043913063 0.38975173 -0.045843825
0000c0 f1 b5 21 3f 0e 10 c9 3d 31 b1 bb 3a 45 23 a0 be
       0.63168246 0.09817515 0.0014319775 -0.3127691
0000d0 1b e8 50 be 2f 4e da 3e 58 f3 d7 3d a3 2a 6d 3d
       -0.20401041 0.42637774 0.10544461 0.05790199
0000e0 fd ae 89 3d 61 8b c7 bd 79 8f 7c be 5a d5 24 be
       0.067228295 -0.09743381 -0.24664105 -0.16097012
0000f0 cf b0 4e be a7 15 9b 3e b2 73 3d 3e 83 a2 85 bd
       -0.20184635 0.30289957 0.18501166 -0.06525137
000100 4d 0f 5b 3e 17 5b 8e 3e a3 9d c2 3c fd af cb be
       0.21392556 0.2780387 0.023756808 -0.39782706
000110 a7 cf 04 be 59 7a 0c 3e 3a a4 ce be 8b f5 9e bc
       -0.12969838 0.13718547 -0.4035967 -0.019404193
000120 f6 a1 31 bd 33 34 c1 3a 1c ba a3 3e ad 91 85 3e
       -0.04336735 0.0014740288 0.31977928 0.26087704
000130 9e 1d 6e 3e 15 d6 d1 3e 3c 7c 43 3d ea 6a 79 be
       0.23253486 0.40983644 0.0477259 -0.2435719
000140 1e 17 5f 3c 38 50 97 3d ef 51 d2 3c cd ab 94 be
       0.013616351 0.073883474 0.025673835 -0.29037324
000150 87 96 73 3d 12 26 4f 3e 82 23 9e 3c 7a 24 1b 3e
       0.059469726 0.20229366 0.01930404 0.15150633
000160 ed 84 f6 3d 69 7f 9e 3e c7 ca 8d 3d 2a 8c 11 be
       0.12037072 0.3095658 0.06923442 -0.14213625
000170 3d 90 03 bf e1 8d a4 be e2 f0 20 be bd 81 a8 bd
       -0.51391965 -0.32139495 -0.1571689 -0.082278706
000180 8a 50 a9 3e ee 44 3d 3e a2 f1 79 3e 22 74 ea be
       0.3306926 0.18483326 0.24408582 -0.45791727

linear3.weight f4 [42, 100]
000000 6a b5 a8 bd 98 ba 53 3d fa ee 82 3d 9e ca 23 3b
       -0.08237727 0.05169162 0.063932374 0.0024992595
000010 e2 99 36 bd a8 fb c3 bc 02 e5 2d bd 48 9a 5d 3d
       -0.044580348 -0.02392371 -0.042454727 0.054102212
000020 26 c9 29 be 59 ee 2f bd c9 d7 d1 3d 15 75 94 bc
       -0.16580638 -0.042951915 0.10246236 -0.018122235
000030 c9 bc 0d 3e d9 b1 c3 bc af d9 5e bd e9 83 97 3e
       0.13841547 -0.023888515 -0.054406818 0.29592827
000040 d4 f1 51 bd f6 96 ed bd b9 d7 55 3d 84 f4 60 be
       -0.051256016 -0.11601059 0.052207682 -0.21968275
000050 7a b8 97 be 7a 7d 07 be 34 db 82 3d 24 49 10 3e
       -0.29632932 -0.1323146 0.06389466 0.14090401
000060 b1 5c a2 bc dd ad 08 3e 1a 2a ce 3c 73 9b ee bd
       -0.01981959 0.13347574 0.02516656 -0.11650743
000070 d8 55 94 3c 33 7e b1 3b ac 72 5f 38 c1 04 9d 3d
       0.01810734 0.0054166554 5.327414e-05 0.07666922
000080 5d f5 3a bd e6 3a 75 bd 0f 21 88 3d db 3a 70 bd
       -0.045644153 -0.059870623 0.066469304 -0.05864988
000090 75 0f 0e 3d a9 25 71 bb 80 7b 24 bc ca 3b d2 3c
       0.03468271 -0.003679613 -0.01003921 0.025663275
0000a0 a0 cb e6 bc 56 a9 34 bd c7 f9 06 3b 12 5d 37 3d
       -0.028173268 -0.044106804 0.0020595656 0.044766493
0000b0 92 85 8e 3c fd 32 e0 bd e3 8a a1 3d 84 f2 85 bd
       0.017397676 -0.10947225 0.07887819 -0.06540397
0000c0 02 11 d4 3c 23 d6 d1 bc bb af 04 be 6e f3 1e 3e
       0.025887016 -0.025614804 -0.12957661 0.15522549
0000d0 7a 7d 86 be 19 9d b1 bd 87 ea d1 3d 57 8b 02 be
       -0.26267606 -0.08672542 0.10249811 -0.12748466
0000e0 b6 58 48 be 59 b1 0f 3d 37 f3 1e bd 8e 1d 95 3c
       -0.1956509 0.03508124 -0.038806166 0.01820257
0000f0 6b 0d a4 3d 2b db b3 bc 0a 66 7d 3d b7 9b 5d bd
       0.08010372 -0.021955093 0.06186489 -0.05410358
000100 38 6f cb 3c e1 e8 a3 3d 76 90 a5 bd 5c ab 86 3e
       0.024833307 0.080034025 -0.08084194 0.26302612
000110 05 fa 54 3c d4 cd 24 be 22 6e fe bc 9e 63 8f be
       0.012999062 -0.16094142 -0.031058375 -0.2800569
000120 e9 91 01 bd 38 5a ec bc 1c ef 01 bd b4 11 ca 3a
       -0.03163329 -0.028851613 -0.031722173 0.0015416653
000130 6d d5 e4 bd 63 5a a6 3d da c5 3f bd db c2 72 3d
       -0.1117352 0.08122709 -0.046819545 0.05926786
000140 c6 d8 9d bd fa c8 88 bd 22 fc aa 3d 6b b5 9d 3d
       -0.07707362 -0.06678958 0.08348872 0.07700618
000150 9a 7e b8 bb 01 31 7c bd bf ad 9c bd 7e 77 bf bd
       -0.0056303265 -0.06157017 -0.07650327 -0.09348963
000160 5e 98 e0 bd cd 29 bf bd b7 29 78 3d ad 1a 66 3d
       -0.10966562 -0.09334145 0.060586657 0.056177784
000170 7d fd ad 3c e8 c8 95 3d 5f 33 b3 3d 80 47 79 bd
       0.021239037 0.073137105 0.08750033 -0.060859203
000180 f7 a9 c6 bd 51 ff 17 bb d4 cd 6a bc c6 0c 89 3d
       -0.09700387 -0.0023192952 -0.0143313 0.066918895
000190 53 77 a6 bd fd 8b e3 3b 96 d3 1d 3c 2a f1 d5 3b
       -0.08128228 0.006944178 0.009632966 0.006528993
0001a0 ee e7 02 3e d6 6c 73 bc 62 d2 db 38 54 ad 8f bc
       0.12783787 -0.0148574915 0.000104819206 -0.017538704
0001b0 c1 53 f3 bb c5 39 4d bc 86 72 f5 3d 87 5e 8e bc
       -0.0074257557 -0.01252598 0.11984734 -0.017379059
0001c0 05 ba c6 3d 65 b3 c9 3b 3a a6 90 bd 3f 54 86 3e
       0.09703449 0.0061554187 -0.07062955 0.2623615
0001d0 f7 28 8b bd a7 68 f6 bd b6 51 97 3d 5d 49 48 be
       -0.06794923 -0.120316796 0.07388632 -0.19559236
0001e0 cd cc 90 be 18 6b 79 bd c3 46 ac 3d 64 af c1 3d
       -0.2828125 -0.06089315 0.08411934 0.09457281
0001f0 a7 ac 8b bc 3d 15 00 3e 79 23 2e 3d 3f 0b ba bd
       -0.0170501 0.12508102 0.042514298 -0.09084176
000200 20 6e db 3c 52 06 83 3c e2 ef 3f 3d dd bc bb 3d
       0.02678591 0.015994225 0.04685963 0.09166882
000210 32 5f 87 bd b4 2b 5d bb bd cf 93 3d a6 20 6e bd
       -0.06609954 -0.0033747973 0.07217357 -0.058136605
000220 88 81 27 bc a7 3d 9b 3c 3a 92 38 3b fa 8d 00 bb
       -0.010223754 0.018950297 0.002816333 -0.0019615875
000230 3e 06 f6 bc 50 f3 56 bd 1b a7 09 3d 1d 70 07 39
       -0.030032273 -0.052478135 0.03360663 0.00012916369
000240 67 1f b8 bd fb 90 9c bd b9 eb c4 3d 85 cd b8 bd
       -0.089903645 -0.0764484 0.09615273 -0.09023575
000250 d6 55 54 3d dd 8b d0 3c 31 57 17 be e4 a5 7c 3d
       0.051839672 0.025457317 -0.14779355 0.061681643
000260 41 29 c3 bd d6 1d ac bd 67 ec 23 3d 92 31 e6 bd
       -0.09529353 -0.08404128 0.040020373 -0.112399235
000270 fa 37 31 be 88 d2 5e 3d 7a ee e4 ba 58 46 db 3b
       -0.1730651 0.054399997 -0.0017466091 0.0066917352
000280 9e 4a f7 3c 84 05 b1 bc e5 8c 9f 3d e2 6f 9f bd
       0.030186947 -0.021609075 0.077905454 -0.07785012
000290 28 e7 da 3d e9 73 57 3d 93 d4 23 bc e8 7c 67 3e
       0.10688621 0.052600775 -0.009999412 0.22606242
0002a0 89 7a 73 3d 14 24 5c be c4 76 d7 3c 63 ad 7d be
       0.05944303 -0.21498138 0.026301749 -0.24773173
0002b0 d4 25 45 bd af b3 80 3c 32 b4 7e bd e3 2b 0d 3c
       -0.04813178 0.01571068 -0.062183566 0.00861642
0002c0 da 54 17 be a7 f0 a5 3c f4 12 20 bd fd 8b 83 3d
       -0.14778462 0.020256354 -0.039080575 0.06423185
0002d0 e4 4a a0 bd 56 07 bb bd c2 89 c6 3d a7 0c 07 3e
       -0.07826784 -0.091322586 0.09694244 0.1318842
0002e0 c6 fa 35 bc 75 96 33 bd 5a 93 75 bd cb c1 18 be
       -0.011107152 -0.04384466 -0.05995498 -0.14917676
0002f0 6b 6f 43 be 9b f9 06 be 09 5e 2e 3d de 63 d9 3d
       -0.19085471 -0.13181154 0.042570148 0.10614751
000300 04 f2 8d 3c 00 80 86 3d 23 bb 9b 3d ef a4 11 3c
       0.017327316 0.06567383 0.07604053 0.008889421
000310 2d 5c 79 bd 97 7f 2c bd 69 a0 ac bc a4 17 bb 3d
       -0.06087892 -0.042113867 -0.021072583 0.091353685
000320 1d 1e 92 bd 14 ed 1b be c1 e3 9a 3d 31 a2 3c bd
       -0.0713465 -0.15227157 0.07562972 -0.046053115
000330 2f e8 98 3e c9 d7 99 bd 47 d3 43 bc bf 75 c3 bc
       0.29864642 -0.07511861 -0.011952228 -0.023859857
000340 7d 83 bb bb 99 8b 43 bd b8 21 c1 bc 25 fe d6 3c
       -0.0057224617 -0.047740553 -0.023575649 0.026244232
000350 d2 aa c1 3d 49 e0 0b bc 96 b8 d7 bd 59 b6 3b 3e
       0.094564095 -0.0085373605 -0.10533254 0.18331279
000360 6b 6c 03 be 5d c8 26 be af 3e 80 3d 12 5c 23 be
       -0.12834327 -0.1628737 0.06261956 -0.15953091
000370 36 a7 ac be 36 28 a5 bd da 70 00 3e 29 54 1e 3e
       -0.33721322 -0.0806431 0.1254305 0.15461792
000380 f6 36 57 3d 8e cd b9 3d 34 1e a6 3d fb ff 9e 3c
       0.05254265 0.090724096 0.081112295 0.01940917
000390 77 89 04 bd e0 eb 48 bb f1 2c 7e 3c 5f 23 95 3d
       -0.03235766 -0.003065817 0.015513645 0.07282137
0003a0 c1 d7 0b 3c f1 b8 02 be e3 be ba 3d 80 09 e4 3b
       0.008535326 -0.12765862 0.0911844 0.0069591403
0003b0 a1 7a 40 3d 56 76 4e bc 8f 4e 44 bd 84 1f 86 bd
       0.046991948 -0.012601456 -0.04792648 -0.0654898
0003c0 6a 9b 82 3d b0 ef ad bd 33 e3 f8 3d fb 0d 20 3d
       0.06377299 -0.084929824 0.1215271 0.039075833
0003d0 f0 af 88 be 91 9b 97 3c ca 62 b1 3d c0 da a6 bc
       -0.2669673 0.018506797 0.08661421 -0.02036798
0003e0 4a 18 11 3d c9 a9 e9 bc db 09 4a be 18 b6 09 be
       0.035423554 -0.028523343 -0.19730322 -0.1344837
0003f0 a0 75 58 3e bc 4a 4b bd 69 ea 5a bc d3 26 4b bd
       0.2113862 -0.04963182 -0.013361552 -0.049597573

linear3.bias f4 [42]
000000 9d 8d b4 3d ba f6 46 3d 26 b8 58 bc af 9b 05 3e
       0.08816073 0.04857514 -0.013227498 0.1304767
000010 28 94 8f 3e f9 b4 e6 3d e1 f7 8b 3e 48 b4 97 3e
       0.28042722 0.112649865 0.27337554 0.2962973
000020 f7 f8 90 3e 9e ee 98 3e 22 5d 9d 3e 18 5a cf 3e
       0.28314945 0.2986955 0.30735117 0.40498424
000030 4c ab d3 3e 7a b6 c2 3e e3 08 be 3e ac 8d c8 3e
       0.41341627 0.38029844 0.37116155 0.39170587
000040 a2 e7 87 3e 62 5e af 3e fb 2c 0b 3d 34 88 04 3f
       0.2654391 0.34251696 0.033978444 0.5177033
000050 d5 7e 01 3f e2 30 05 3f a7 99 e1 3e 5b d1 7d 3e
       0.50584155 0.52027714 0.4406254 0.24786894
000060 8a d8 22 3e ea f4 ca 3e fb a0 c5 3e 5c c1 f4 3e
       0.15902916 0.3963998 0.3859938 0.47803771
000070 02 b3 ae 3e f2 35 c6 3e 94 99 c8 3e bf 2b ab 3e
       0.34120947 0.38713032 0.3917967 0.33431813
000080 49 6e 62 3f 6b 1c 28 3f d8 8c e7 3e 78 20 a0 3d
       0.8844953 0.6566836 0.45224643 0.07818693
000090 ad 29 93 3e af f2 ee 3e 15 87 f3 3e 86 3a d8 3e
       0.28742734 0.46669528 0.47563997 0.4223215
0000a0 62 62 6e 3e 0b c5 19 3e
       0.23279718 0.15016572
