saved_model_for_8parameters.pt (torch, 65047 bytes, 6 tensors)

linear1.weight f4 [100, 13]
0	0xbea5caa7	-0.32381174
1	0x3ea8887a	0.32916623
2	0x3e080b35	0.13285525
3	0x3db4345e	0.08799051
4	0xbe6429a7	-0.22281514
5	0x3f0fb56a	0.5613619
6	0xbea7c5ef	-0.327682
7	0xbe270281	-0.16309549
8	0x3d18a370	0.03726524
9	0x3bc63607	0.006048921
10	0xbe3182a6	-0.17334995
11	0x3d9f42f8	0.07776445
12	0xbc7ebc92	-0.015547888
13	0x3eac8ac7	0.3369963
14	0x3e88432e	0.26613754
15	0xbe586f7a	-0.21136275
16	0xbf0266ae	-0.50937927
17	0x3dd19496	0.10233419
18	0xbe7c404b	-0.24633901
19	0x3cd64514	0.026155986
20	0x3cd5a41a	0.026079226
21	0xbeb16849	-0.34649876
22	0x3cd3d136	0.025856595
23	0x3de933c0	0.11386824
24	0x3d9202e8	0.071294606
25	0x3db3b419	0.08774585
26	0xbdf8ff67	-0.12158089
27	0x3eec72fc	0.46181476
28	0x3eb7db88	0.35909677
29	0xbd327e7d	-0.04357766
30	0xbf02649c	-0.5093477
31	0xbc016d14	-0.007899541
32	0xbeccf792	-0.4003263
33	0x3f01c629	0.50692993
34	0xbe542006	-0.20715341
35	0x3df350d8	0.11880654
36	0x3e13bba4	0.14427048
37	0x3c201e30	0.009772822
38	0x3e9cb681	0.3060799
39	0xbece1fe1	-0.40258697
40	0x3eb92546	0.3616125
41	0xbed14c24	-0.40878403
42	0xbd2d8f51	-0.042373005
43	0xbced62cd	-0.028977776
44	0x3b022cf1	0.0019863213
45	0x3ef68f38	0.48156142
46	0xbe4b6e39	-0.19866265
47	0xbe93cf09	-0.28868893
48	0xbe5d7f84	-0.21630675
49	0x3e1a8628	0.15090239
50	0x3e4d5390	0.20051408
51	0xbe9aaf7c	-0.3021201
52	0x3ea525cc	0.322554
53	0xbe8e2b7c	-0.2776755
54	0x3e6a4a22	0.22879842
55	0xbec0733c	-0.37587917
56	0xbcff82d7	-0.031190319
57	0xbf2c0ac0	-0.67203903
58	0x3ed3194f	0.41230246
59	0x3ed6e925	0.4197475
60	0xba250699	-0.00062952336
61	0xbe321893	-0.17392187
62	0x3eb0b32a	0.3451169
63	0xbdbc79a7	-0.09202891
64	0x3eaf4ef3	0.3423992
65	0xbf20493c	-0.62611747
66	0x3e095dbd	0.13414665
67	0x3cc80695	0.024417201
68	0xbc4b17da	-0.012395823
69	0x3ebfe034	0.3747574
70	0xbea71648	-0.32634187
71	0xbf2871f1	-0.6579886
72	0xbe14200f	-0.14465354
73	0xbd12ec3e	-0.03586983
74	0x3d31ace3	0.04337777
75	0xbe7ab248	-0.24482071
76	0xbe59706d	-0.21234293
77	0xbe74ee51	-0.23919035
78	0x3d80d14b	0.062899195
79	0x3eb5361e	0.3539285
80	0xbe9d75da	-0.30753976
81	0x3ec849ad	0.3911871
82	0xbe16b2db	-0.14716665
83	0x3eef6d76	0.467632
84	0xbf216303	-0.63041705
85	0x3dfcbe70	0.123410106
86	0xbee7c148	-0.4526465
87	0xbf03f978	-0.51552534
88	0xbe9a3d6f	-0.30124995
89	0xbebd1a17	-0.36933967
90	0xbeed2e22	-0.4632426
91	0x3e390ce9	0.18071331
92	0xbe0fc8d3	-0.14041452
93	0xbf3e0c25	-0.7423728
94	0x3f1ce0ec	0.61280704
95	0xbda3906f	-0.07986533
96	0x3e68c94a	0.22733036
97	0x3e1e0292	0.15430668
98	0x3ea733b6	0.3265664
99	0xbf15898a	-0.5841299
100	0xbf23ab98	-0.63933706
101	0xbe184f04	-0.14873892
102	0xbf22c9d6	-0.6358923
103	0xbeef650c	-0.4675678
104	0x3d109ec1	0.03530765
105	0x3dd6f883	0.104966186
106	0x3e35e3fb	0.17762749
107	0x3ecef045	0.40417686
108	0x3f0311a5	0.511988
109	0x3eab7a8c	0.33491933
110	0xbe5ef060	-0.21771383
111	0xbd601fed	-0.054717947
112	0x3e2bf844	0.16793925
113	0xbd52a4a7	-0.051426556
114	0xbe0777c4	-0.1322928
115	0xbb4e6c04	-0.0031497488
116	0xbd2b0aaa	-0.041758217
117	0xbe71fad1	-0.23630835
118	0x3e5fcc36	0.21855244
119	0xbd983ae0	-0.074331045
120	0x3e09f056	0.13470587
121	0xbe677c52	-0.22606018
122	0x3ede403e	0.43408388
123	0x3e501d1e	0.20323607
124	0x3c662779	0.014047497
125	0xbdcf4647	-0.10120826
126	0xbe32034d	-0.17384072
127	0xbe548591	-0.20754077
128	0x3dd36ee4	0.10323885
129	0xbe247928	-0.16061842
130	0x3e3a53a6	0.18195972
131	0x3efb0c08	0.49032617
132	0x3db98edd	0.09060452
133	0xbeee8277	-0.46583912
134	0xbef9fe1f	-0.48826692
135	0x3d3e1e7c	0.04641579
136	0x3d466385	0.048434753
137	0xbd9cec09	-0.07662208
138	0xbe45fa64	-0.19333798
139	0x3c69d332	0.014271544
140	0xbdac9b52	-0.084280625
141	0x3e3d4e9a	0.18487015
142	0xbc447a52	-0.011992054
143	0x3aa1aab0	0.0012334194
144	0x3edc37cb	0.43011317
145	0xbc3e239e	-0.0116051715
146	0xbe43031f	-0.1904416
147	0x3d852a83	0.06502249
148	0xbeea07d9	-0.45709112
149	0xbe1d866a	-0.15383306
150	0xbdf60850	-0.12013304
151	0x3e8b9204	0.2725984
152	0x3d0f6a63	0.035013568
153	0x3eceee92	0.4041639
154	0x3e634051	0.22192504
155	0x3e6cbd9d	0.23119207
156	0x3d08fca3	0.03344406
157	0xbe857143	-0.26062974
158	0xbdff6854	-0.12471071
159	0xbe08428f	-0.1330664
160	0x3d964d97	0.07339018
161	0x3d5e6728	0.054297596
162	0xbe83037d	-0.255886
163	0x3f2d5c72	0.67719185
164	0x3e77254a	0.24135318
165	0xbe2f7e03	-0.17137913
166	0xbe09a0cd	-0.13440247
167	0x3eb15c1d	0.3464059
168	0x3e371801	0.1788025
169	0x3ed41773	0.4142414
170	0x3eadd4c0	0.33951378
171	0x3ee0cae9	0.43904808
172	0xbe6ae9b7	-0.22940718
173	0xbec55528	-0.38541532
174	0xbee04e2b	-0.43809637
175	0x3e9ad508	0.30240655
176	0x3c30e860	0.01079759
177	0x3ed4cf9e	0.4156465
178	0xbdc96221	-0.0983317
179	0x3ea8f076	0.32995957
180	0x3ecfba98	0.40572047
181	0x3ea560d4	0.32300436
182	0x3be280cc	0.0069123264
183	0x3ddbfed6	0.107419655
184	0xbe33aa7c	-0.17545503
185	0xbf080a90	-0.5314112
186	0x3e09a5d5	0.13442166
187	0xbe2f0740	-0.1709261
188	0xbcae8996	-0.02130584
189	0xbe524c0b	-0.2053682
190	0xbd87032f	-0.06592404
191	0x3eb0697d	0.3445548
192	0x3e354a5e	0.1770415
193	0x3eb3a8eb	0.35089812
194	0xbd3c8833	-0.046028327
195	0x3d447d08	0.0479708
196	0x3ecdcd09	0.40195492
197	0xbda96ab1	-0.08272303
198	0xbf159b45	-0.5844005
199	0x3dd1ef63	0.102507375
200	0x3ef532ab	0.4789022
201	0xbdd7d0ac	-0.10537848
202	0x3ef7e10e	0.4841389
203	0x3e059b1d	0.13047452
204	0xbe3b9712	-0.18319348
205	0xbe720db5	-0.23638041
206	0xbe5b9a71	-0.21445633
207	0x3dcc8b89	0.09987552
208	0xbe885420	-0.26626682
209	0xbef29347	-0.4737799
210	0x3ea4e37f	0.32204816
211	0xbd395ac4	-0.045252576
212	0x3e32d70c	0.17464846
213	0xbf6f3493	-0.93439597
214	0xbdfec659	-0.124401756
215	0x3ea6f6c1	0.32610133
216	0x3e79e929	0.2440535
217	0xbdd97638	-0.106182516
218	0x3e838f76	0.2569539
219	0x3e059d62	0.13048318
220	0x3e202c27	0.15641843
221	0x3f56e953	0.83949775
222	0xbf015ca3	-0.5053198
223	0x3ec7a203	0.38990793
224	0xbd9234be	-0.07138966
225	0xbf148243	-0.58011264
226	0x3e8d21c8	0.27564836
227	0xbe82aad4	-0.25520957
228	0xbe8affbe	-0.2714824
229	0x3e4398be	0.19101235
230	0xbe584e22	-0.21123555
231	0x3e8472e8	0.25868917
232	0x3e288cc5	0.1645995
233	0xbd20f882	-0.039299496
234	0x3e32017c	0.17383379
235	0x3d39448d	0.04523139
236	0xbdc4bd3e	-0.096064076
237	0x3dd18208	0.102298796
238	0x3e8c5f53	0.27416477
239	0x3d22431d	0.039614785
240	0xbe03eda5	-0.12883623
241	0xbe9de859	-0.3084133
242	0xbe29d9bc	-0.16586965
243	0x3e1461b9	0.14490403
244	0x3e381778	0.17977703
245	0xbdc6456d	-0.09681211
246	0x3decb396	0.11557691
247	0x3f0eb9a0	0.5575199
248	0xbeb8132a	-0.3595212
249	0x3ec247e4	0.37945473
250	0x3de53c2f	0.1119312
251	0xbd9f1047	-0.077667765
252	0xbec194bf	-0.37808797
253	0x3ed9cb4b	0.42537913
254	0x3e6e2e0d	0.23259754
255	0x3e1d6dd8	0.15373933

linear1.bias f4 [100]
0	0xbef6b944	-0.4818822
1	0xbe5d96e3	-0.2163959
2	0xbe86da54	-0.26338446
3	0xbe7e73d0	-0.24848866
4	0x3e6bc13e	0.23022935
5	0x3ebe0844	0.3711568
6	0xbe289403	-0.16462712
7	0xbe03b81c	-0.12863201
8	0xbf46e7fa	-0.7769772
9	0xbeda4ddb	-0.42637524
10	0xbe1e7260	-0.15473318
11	0xbed6ac37	-0.41928264
12	0xbdf3578f	-0.11881935
13	0x3e730aee	0.23734638
14	0x3ea2d710	0.31804705
15	0xbd6ec1e5	-0.05829038
16	0xbea14361	-0.3149672
17	0x3ecb1903	0.3966752
18	0xbf1425e1	-0.578703
19	0xbe909238	-0.28236556
20	0x3f2f0343	0.6836435
21	0x3ee46189	0.44605663
22	0xbce20210	-0.027588874
23	0xbd6b45e2	-0.057439692
24	0xbdd38004	-0.103271514
25	0xbf176331	-0.5913573
26	0x3e2232a1	0.15839626
27	0x3dc37705	0.095441855
28	0xbe22d891	-0.15902926
29	0x3e9d4b6a	0.307216
30	0xbe96ee8c	-0.29478872
31	0x3ecb747a	0.39737302
32	0xbdeb9c6a	-0.11504443
33	0x3e760528	0.24025404
34	0x3eabfede	0.33592886
35	0xbe97e7d9	-0.29669073
36	0xbe248d0e	-0.16069433
37	0x3d4ca25c	0.049959525
38	0x3e780984	0.2422238
39	0x3d7ae11a	0.06124983
40	0x3f58c29f	0.8467197
41	0xbdc717dd	-0.097213484
42	0xbeb26924	-0.3484584
43	0x3d24a071	0.04019207
44	0xbf4d5961	-0.80214506
45	0xbec9022e	-0.39259475
46	0xbec19171	-0.37806275
47	0xbe13bb55	-0.1442693
48	0xbe970a12	-0.2949987
49	0xbdfcbd8a	-0.12340839
50	0x3ee234ff	0.44181058
51	0xbe8293a2	-0.2550326
52	0x3e67d6d3	0.22640543
53	0xbf239541	-0.6389962
54	0x3e6a6206	0.22888955
55	0xbf0a688e	-0.5406579
56	0x3f4ea3aa	0.8071848
57	0x3f38e0ee	0.72218215
58	0xbd7f101b	-0.06227122
59	0xbcd97560	-0.026545227
60	0xbe270fed	-0.16314669
61	0x3efc839c	0.4931916
62	0x3e2fac60	0.171556
63	0x3f02a18c	0.5102775
64	0x3da5a12e	0.08087383
65	0xbf13726e	-0.5759648
66	0x3eb25941	0.3483372
67	0x3cf5be18	0.02999787
68	0x3d492a36	0.04911252
69	0xbe6fdaad	-0.23423262
70	0xbf20f27a	-0.6286999
71	0xbf62fe54	-0.88669324
72	0x3ebf6794	0.3738371
73	0x3e815a0b	0.2526401
74	0xbf248d41	-0.64278036
75	0x3ebe11c2	0.37122923
76	0x3ef61a6a	0.48067027
77	0xbe784c99	-0.2424797
78	0xbe755f82	-0.23962215
79	0x3ead22ca	0.33815604
80	0xbe270762	-0.1631141
81	0xbe130769	-0.14358296
82	0xbe038310	-0.12842965
83	0x3e305fa7	0.17223988
84	0x3e0f6518	0.14003408
85	0xbea2ba68	-0.31782842
86	0xbde5d234	-0.11221734
87	0xbeb1637c	-0.34646213
88	0xbe9e7439	-0.30948046
89	0x3f57d581	0.84310156
90	0x3ca8ed64	0.02062101
91	0xbeeb57f6	-0.45965546
92	0xbe98ece0	-0.2986822
93	0xbedf46f3	-0.43608817
94	0xbeb4315b	-0.35193905
95	0x3ebc4272	0.36769444
96	0x3f0b5a2b	0.5443446
97	0x3dccc9ab	0.099994026
98	0x3f06e108	0.5268712
99	0x3e8332db	0.25624737

linear2.weight f4 [100, 100]
0	0x3d411b21	0.047145013
1	0xbcd945d9	-0.026522564
2	0x3d72c192	0.059266634
3	0xbd13bc25	-0.0360681
4	0x3c71d561	0.014760346
5	0xbcf069e4	-0.029347368
6	0x3e1b99ce	0.1519539
7	0xbd83fe91	-0.06445039
8	0x3c827a20	0.015927374
9	0xbc8941a3	-0.01675493
10	0xbc162a1d	-0.009165314
11	0x3de4e828	0.11177093
12	0xbdd8ddb0	-0.105891585
13	0xbdc0d37e	-0.09415339
14	0x3bed2fec	0.0072383787
15	0x3cbe05db	0.023196151
16	0xbd6428bd	-0.055702914
17	0xbdc938d1	-0.0982529
18	0xb8e04d4e	-0.000106955515
19	0x3d82f83a	0.06395002
20	0xbdc5232f	-0.09625851
21	0xbddb840d	-0.10718546
22	0xbc91ba28	-0.017788962
23	0xbe50c0cb	-0.20386045
24	0xbdb211d1	-0.086948045
25	0x3c46f2b6	0.012142828
26	0xbcef616d	-0.02922126
27	0x3e79a849	0.24380602
28	0x3cd0f4b9	0.025507318
29	0x3d7c372b	0.06157605
30	0x3d958002	0.07299806
31	0xbd7ff957	-0.06249365
32	0xbd8b15bd	-0.067912556
33	0xbd85fcfd	-0.06542394
34	0x3dcacac0	0.09901953
35	0x3de788ac	0.11305365
36	0xbcbde59d	-0.023180777
37	0xbcc7d10e	-0.024391677
38	0xbd1d50de	-0.0384072
39	0x3d71cbf1	0.059032384
40	0xbdbf29d6	-0.093341514
41	0xbe2d5bd0	-0.16929555
42	0x3cc2094e	0.023686077
43	0xbdb76ab6	-0.089559
44	0x3e0acf15	0.13555558
45	0x3e56888b	0.20950525
46	0x3ba091eb	0.0049002073
47	0xbe853265	-0.2601501
48	0xb9a1bb29	-0.00030847758
49	0x3c9499fc	0.018139832
50	0xbe06095c	-0.13089508
51	0xbe1fa3f0	-0.15589881
52	0x3db1ae15	0.08675782
53	0x3e1e42b2	0.1545513
54	0xbd803d0b	-0.06261643
55	0xbda0fd93	-0.078608654
56	0xbe0d4031	-0.13794018
57	0xbc980883	-0.018558746
58	0x3d9f3b42	0.077749744
59	0x3c1d3abe	0.009596525
60	0x3b1b7a37	0.0023723969
61	0xbdbbe494	-0.09174457
62	0xbdd206a0	-0.1025517
63	0xbddcaa2b	-0.107746445
64	0xbe26be2a	-0.1628348
65	0x3dd5fa88	0.10448176
66	0x3e1aca68	0.15116274
67	0x3d860c90	0.06545365
68	0x3d7cdc71	0.061733667
69	0xbdcba4e9	-0.099435635
70	0x3dc3fe8f	0.095700376
71	0xbdc7419e	-0.09729312
72	0x3cf23fb7	0.029571397
73	0xbe056944	-0.13028437
74	0x3b9ec7d9	0.004845601
75	0xbe3537a9	-0.17697014
76	0x3d97863e	0.073986515
77	0x3d6f6d9b	0.058454137
78	0xbe3baaca	-0.1832687
79	0xbe3b74b6	-0.1830624
80	0x3d9a2ee9	0.07528479
81	0xbda4582f	-0.08024632
82	0xbda78e42	-0.081814304
83	0x3dfca221	0.12335611
84	0xbdb4119b	-0.087924205
85	0x3e6b8a22	0.23001912
86	0xbe44b128	-0.19208205
87	0x3e6d4fd7	0.23174988
88	0x3dad21d3	0.08453717
89	0xbe44c958	-0.19217432
90	0x3dcdb5a6	0.10044412
91	0xb9ad5162	-0.00033057766
92	0x3c9f86b9	0.01947342
93	0xbc55af06	-0.013042217
94	0x3e18cb57	0.14921318
95	0x3da9b680	0.08286762
96	0x3d86bbd6	0.065787956
97	0x3da2685d	0.07930062
98	0xbe5c0207	-0.21485148
99	0x3d8a3d2c	0.06749949
100	0xbe3984a6	-0.18117008
101	0xbd1cf659	-0.038320873
102	0xba708496	-0.000917503
103	0x3e8c603b	0.27417168
104	0x3ddbe6ed	0.10737405
105	0xbe8f33f9	-0.2796934
106	0xbd591ab9	-0.053004
107	0x3daff885	0.08592323
108	0x3bb7215f	0.005588695
109	0x3d0baa36	0.034097873
110	0xbe364f41	-0.1780367
111	0xbcffd87a	-0.031231154
112	0xbda6bc83	-0.081414245
113	0x3e18fc88	0.14940083
114	0xbcfce7a3	-0.030872172
115	0xbd05024f	-0.032472905
116	0x3e011afb	0.12607948
117	0xbd1389a3	-0.036019932
118	0x3dce27d5	0.10066191
119	0x3d157331	0.03648681
120	0x3e828acc	0.2549652
121	0xbcc56ecf	-0.02410069
122	0xbcb97a2a	-0.02264126
123	0xbe4853a8	-0.19563162
124	0x3dde81fe	0.10864638
125	0xbcc96f49	-0.024589198
126	0x3e03782a	0.12838808
127	0xbe85603f	-0.26049992
128	0x3d91f37e	0.071265206
129	0xbdd7c906	-0.10536389
130	0x3cf347f5	0.029697398
131	0x3e0059f4	0.12534314
132	0xbc45e8e4	-0.012079451
133	0x3e029013	0.12750272
134	0x3d507a77	0.05089804
135	0xbd46c74d	-0.04852991
136	0xbe6c4345	-0.23072536
137	0x3d87feac	0.06640372
138	0xbd90fe7c	-0.07079789
139	0x3d6fa362	0.058505423
140	0x3da0bfba	0.07849069
141	0xbe020afd	-0.12699504
142	0x3e2c905b	0.16851942
143	0x3d055980	0.032556057
144	0xbe049ea7	-0.12951146
145	0x3cb6baa5	0.022305796
146	0x3c31bf74	0.010848869
147	0x3df1573e	0.11784218
148	0x3e3365f7	0.17519365
149	0x3d038f26	0.03211894
150	0xbd82ee77	-0.0639314
151	0xbd81c65b	-0.063366614
152	0x3dff7eb7	0.12475341
153	0x3e82c8b6	0.25543755
154	0x3e033589	0.12813391
155	0x3e3cc330	0.18433833
156	0x3c2dbbe7	0.010603881
157	0x3d1a8016	0.03771981
158	0x3ddf2e38	0.108974874
159	0xbdcd449e	-0.10022853
160	0xbe7eb60c	-0.24874133
161	0xbda6d31e	-0.08145736
162	0x3daec2b4	0.085332304
163	0xbde26daa	-0.11056073
164	0xbe07ff9c	-0.13281101
165	0x3e22f2cf	0.15912937
166	0x3db2654a	0.087107256
167	0xbc6bb561	-0.014386506
168	0x3c2754b2	0.010213064
169	0x3d39cf56	0.045363747
170	0x3c0d4e5f	0.008624642
171	0x3c7a30fb	0.015270467
172	0xbe220815	-0.15823396
173	0xbcd3ecda	-0.025869776
174	0x3e24ca5f	0.16092823
175	0x3d2afe34	0.041746333
176	0x3c84a9d2	0.016194258
177	0x3d655263	0.055986773
178	0xbb296635	-0.0025848274
179	0x3d6aeb66	0.0573534
180	0xbd718d5d	-0.058972705
181	0xbcca4dfa	-0.024695385
182	0x3d541d74	0.0517859
183	0x3cb2737b	0.021783581
184	0x3d3b5e91	0.045744482
185	0xbc9ba862	-0.01900119
186	0xbcdb1b27	-0.026746346
187	0x3e07ba58	0.13254678
188	0x3d52d597	0.051473226
189	0x3e12d743	0.14339928
190	0x3c9f9230	0.019478887
191	0xbe38329e	-0.17988059
192	0xbdb2b9a4	-0.087268144
193	0x3d3d8a07	0.04627421
194	0xbd954f88	-0.0729056
195	0x3cf86e93	0.030326163
196	0xbe0cdc55	-0.13755925
197	0x3d6bccc2	0.05756832
198	0xbdb385f6	-0.087657854
199	0x3cfb088b	0.030643722
200	0xbce17350	-0.027520806
201	0xbd5c63bb	-0.053806048
202	0xbe1080c1	-0.14111616
203	0x3dd4c729	0.10389549
204	0x3dc7fd81	0.09765149
205	0x3e1277eb	0.14303558
206	0x3e091511	0.13386942
207	0xbe091838	-0.13388145
208	0x3d362cc1	0.044476274
209	0x3de1d22c	0.11026415
210	0xbd6e6085	-0.058197517
211	0x3ba96dc8	0.0051705576
212	0xbc66ef51	-0.014095143
213	0x3cb1b31a	0.021691848
214	0xbe090b0f	-0.13383125
215	0x3bdb3e79	0.006690797
216	0x3ddc60db	0.10760661
217	0x3c924339	0.01785432
218	0x3da1c3bf	0.07898664
219	0xbd0ce991	-0.034402434
220	0x3cbfb49d	0.023401553
221	0xbd55fa07	-0.052240398
222	0x3df88b49	0.121359415
223	0x3d3aeb34	0.045634463
224	0xbe21b7f0	-0.15792823
225	0x3c9879f1	0.018612834
226	0xbd0fade2	-0.035077937
227	0x3dcf4c3f	0.10121965
228	0xbe0807e5	-0.13284262
229	0xbdcdd912	-0.100511685
230	0x3c80f7ff	0.015743254
231	0x3ba831a2	0.00513287
232	0x3c858da0	0.016302884
233	0xbca7d82e	-0.020488825
234	0xbdcc7a2c	-0.0998424
235	0x3dba9580	0.09110546
236	0xbe12b82f	-0.14328073
237	0x3c96adc4	0.018393405
238	0xbe2ffad4	-0.17185527
239	0x3db3ec0e	0.08785258
240	0x3ce4b21c	0.02791696
241	0xbe46e987	-0.19425021
242	0xbda81b49	-0.08208329
243	0x3e30d501	0.17268755
244	0xbe14b87f	-0.14523505
245	0xbd735f89	-0.05941728
246	0x3def7fcf	0.116942994
247	0x3e490efb	0.19634621
248	0xbdf81cc1	-0.12114859
249	0xbe28cdca	-0.16484752
250	0x3c4b2acc	0.01240034
251	0xbbefb5a3	-0.007315354
252	0x3d33cd14	0.04389675
253	0xbdef9b2e	-0.1169952
254	0x3d9bc6ad	0.07606254
255	0xbb43a97b	-0.0029855657

linear2.bias f4 [100]
0	0xbd66f5c8	-0.05638674
1	0xbe887f23	-0.26659498
2	0xbe484d96	-0.19560847
3	0xbcb646f8	-0.022250637
4	0x3d6cb543	0.057790052
5	0xbd81f21e	-0.06345008
6	0xbec20685	-0.378956
7	0xbe27facc	-0.16404265
8	0x3d15c486	0.036564372
9	0xbe0788dd	-0.13235803
10	0xbeaac979	-0.33356836
11	0x3e4968eb	0.1966893
12	0x3e7e2d0f	0.24821876
13	0xbf0234cd	-0.5086182
14	0xbd8020ce	-0.06256257
15	0xbd7ff0d6	-0.06248554
16	0xbc3ac01a	-0.01139834
17	0x3ea8858e	0.32914394
18	0x3d585bc3	0.052821886
19	0x3ce6339c	0.028100781
20	0xbd81a7c0	-0.06330824
21	0x3eb504ac	0.35355127
22	0x3df18df9	0.11794657
23	0xbb8c603e	-0.004283934
24	0x3eb020c6	0.34400004
25	0xbb5728b3	-0.0032830655
26	0xbe7715aa	-0.24129358
27	0xbdebc44f	-0.11512052
28	0x3eaae7ba	0.33379918
29	0x3e5c5c8e	0.21519682
30	0xbe79dae2	-0.24399903
31	0x3f4c1657	0.7972159
32	0x3e4dda5a	0.20102826
33	0x3da0bde7	0.07848721
34	0xbc819ac2	-0.015820865
35	0xbe955a63	-0.29170522
36	0x3cb42682	0.021991018
37	0xbdd658fb	-0.104661904
38	0xbe123993	-0.14279775
39	0x3ecb2202	0.39674383
40	0xbc6feddb	-0.0146441115
41	0x3e1eb5dc	0.15499061
42	0x3f0cfc01	0.5507203
43	0xbd8b4c73	-0.06801691
44	0xbd4cb989	-0.049981628
45	0x3d5e3fb7	0.054259982
46	0x3ed74f38	0.42052627
47	0xbdafa4bb	-0.08576342
48	0x3f2318d1	0.6370974
49	0x3dec2680	0.11530781
50	0xbd009988	-0.03139642
51	0xbeae1875	-0.34003034
52	0xbe59e8a3	-0.2128015
53	0x3f02848f	0.5098352
54	0x3dfdcfc6	0.12393145
55	0x3da95839	0.0826878
56	0x3de04193	0.10950007
57	0xbdb52df5	-0.08846656
58	0xbe5bd54f	-0.2146809
59	0xbe0128a3	-0.12613158
60	0xbe5ee996	-0.21768793
61	0x3ea8cff6	0.32971162
62	0x3e5927d4	0.212066
63	0xbd24953d	-0.040181387
64	0x3e5bab1d	0.21451993
65	0x3e8d2024	0.27563584
66	0x3d0730b6	0.03300544
67	0xbed90a6d	-0.42390767
68	0xbe31a721	-0.17348911
69	0x3e1bc706	0.1521264
70	0xbeccd144	-0.40003407
71	0x3c339336	0.010960391
72	0xbb7cca5a	-0.003857276
73	0x3c824300	0.015901089
74	0x3ec93a02	0.3930207
75	0x3e91961d	0.2843484
76	0x3e956628	0.29179502
77	0x3eb67b2d	0.3564085
78	0x3da90804	0.08253482
79	0xbe959e70	-0.2922244
80	0xbd24d152	-0.040238686
81	0x3e0cfa7b	0.13767426
82	0xbbe304db	-0.006928069
83	0xbea4bec1	-0.32176784
84	0x3cfa41ab	0.030548891
85	0x3e932e92	0.28746468
86	0x3d7baa90	0.061441958
87	0x3e12e2ce	0.14344332
88	0x3e089415	0.13337739
89	0x3ea71135	0.32630315
90	0x3db2d6d9	0.08732385
91	0xbe2f92a2	-0.1714578
92	0xbf0fa585	-0.5611194
93	0xbeacf77a	-0.3378256
94	0xbe25ac7b	-0.16179077
95	0xbd50bac8	-0.05095938
96	0x3ebb7372	0.36611515
97	0x3e31afbb	0.17352192
98	0x3e85899b	0.26081547
99	0xbf06a04b	-0.5258834

linear3.weight f4 [42, 100]
0	0xbdabacf6	-0.08382599
1	0x3d98a26f	0.07452857
2	0x3d369288	0.044573337
3	0x3c4d4f93	0.012531179
4	0x3ba54ac2	0.005044312
5	0xbcbd6f3e	-0.023124333
6	0xbd4930f6	-0.04911896
7	0x3d4ce314	0.050021246
8	0xbd47b174	-0.048753217
9	0xbd0b0fed	-0.033950735
10	0x3e09d3aa	0.1345965
11	0xbab82e80	-0.0014051944
12	0x3da09c21	0.07842279
13	0xbca7148f	-0.020395545
14	0xbd428e31	-0.047498886
15	0x3e9570eb	0.29187712
16	0xbd014e7b	-0.031568985
17	0xbd9a877f	-0.07545375
18	0x3cf4a6ca	0.029864687
19	0xbe0a6d5b	-0.13518278
20	0xbe8fd034	-0.28088534
21	0xbdcef3d4	-0.101051
22	0x3d389485	0.045063514
23	0x3daa993a	0.08330007
24	0xbc90985f	-0.017650781
25	0x3e0a7fdf	0.13525341
26	0x3c6763ea	0.014122942
27	0xbd98d623	-0.07462718
28	0xbd13b4d0	-0.036061108
29	0x3bccfb62	0.006255553
30	0x3ceafe3a	0.028685678
31	0x3d86f5b7	0.06589835
32	0xbd47b8a2	-0.048760064
33	0xbd269353	-0.040667843
34	0x3c645c67	0.013938046
35	0xbd8a61d8	-0.067569435
36	0x3cec36a4	0.028834648
37	0x3ccd1f01	0.025039198
38	0x3c085c06	0.008322721
39	0x3d23932a	0.03993527
40	0xbcc86da7	-0.024466349
41	0xbd2a6276	-0.041597806
42	0x3c5d4877	0.0135060465
43	0x3cea57be	0.028606292
44	0xbc75ba9b	-0.0149981035
45	0xbdd63fd8	-0.10461396
46	0x3d810a26	0.06300764
47	0xbcee4da0	-0.029089749
48	0x3d01ed8d	0.031720687
49	0xbcb831c3	-0.022484666
50	0xbe13613b	-0.14392559
51	0x3e018d41	0.1265154
52	0xbe654575	-0.22389777
53	0x3ade9508	0.0016981671
54	0x3de2834f	0.110602014
55	0xbd982188	-0.074282706
56	0xbe040852	-0.12893799
57	0x3d1ac0a1	0.03778136
58	0xbd81f5e7	-0.0634573
59	0xbc41ddf2	-0.011832701
60	0x3d78f4f2	0.060780473
61	0xbcaa448f	-0.020784644
62	0x3c7348d9	0.014848911
63	0xbd8e17ee	-0.06938158
64	0x3d7c5f8a	0.06161455
65	0x3d5034db	0.050831657
66	0xbda59224	-0.08084515
67	0x3e73523f	0.23761843
68	0x3c8cf709	0.01720764
69	0xbe09b04a	-0.13446155
70	0xbd782110	-0.060578406
71	0xbe882d62	-0.26597124
72	0xbd542b3a	-0.051799037
73	0x3d0b754e	0.034047417
74	0x3d149286	0.03627255
75	0xbc1890bf	-0.009311854
76	0xbe01ce9e	-0.12676474
77	0x3dc6322f	0.096775405
78	0xbdc051e1	-0.09390617
79	0x3d1c49f4	0.038156465
80	0xbc7490b3	-0.014927077
81	0xbd8de8de	-0.069291815
82	0x3d7ab9d9	0.061212394
83	0x3ddea8e2	0.108720556
84	0x3d15055d	0.036382068
85	0xbcf07b82	-0.029355768
86	0xbdb58c1a	-0.08864613
87	0xbdddac59	-0.10823888
88	0xbe3520fa	-0.17688361
89	0xbdb626bc	-0.08894107
90	0x3da02ea8	0.07821399
91	0x3d51905e	0.05116307
92	0x3cbf10ca	0.023323435
93	0x3d680857	0.05664858
94	0x3d1ffe1f	0.039060708
95	0xbd0b3c3b	-0.033992987
96	0xbd0b417d	-0.033998
97	0xbcf7a5c4	-0.03023041
98	0x3d073a5f	0.03301465
99	0x3cf08f01	0.029365065
100	0xbdb1c515	-0.086801685
101	0x3c11e79b	0.008905317
102	0x3cfbf88f	0.03075817
103	0xb9db2186	-0.00041795912
104	0x3df38375	0.11890308
105	0xbd123b64	-0.03570117
106	0xbd1c1c25	-0.03811278
107	0xbc02c471	-0.007981406
108	0x3cd0852a	0.025454123
109	0xbc1e74dd	-0.009671417
110	0x3dfcad70	0.12337768
111	0x3b26b606	0.0025438084
112	0x3d3568e3	0.04428948
113	0xbb611ae3	-0.00343483
114	0xbd2c8b2d	-0.042124916
115	0x3e745bad	0.23863097
116	0xbd6f3724	-0.058402196
117	0xbd8fd0e7	-0.07022267
118	0x3d2ccd3b	0.04218791
119	0xbddd58df	-0.108079664
120	0xbe818c06	-0.25302142
121	0xbdf959fa	-0.12175365
122	0x3d38fb14	0.04516132
123	0x3d9df9e5	0.07713679
124	0xbcf1eca4	-0.029531784
125	0x3e0a67d4	0.1351617
126	0x3cff03e6	0.031129789
127	0xbd045a90	-0.03231293
128	0xbc56ad74	-0.013102878
129	0x3cad7b47	0.021176947
130	0x3d3678b7	0.044548716
131	0x3dac7a44	0.08421758
132	0xbcece378	-0.02891706
133	0xbccd18d0	-0.025036246
134	0x3cd25569	0.025675492
135	0xbb94b193	-0.00453777
136	0x3cb172ab	0.021661123
137	0x3c87b607	0.01656629
138	0x3cf9d4aa	0.030496914
139	0xbb05bb64	-0.0020405883
140	0xbcc70e37	-0.02429877
141	0xbca78688	-0.020449892
142	0x3d44667f	0.04794931
143	0x3cfe6557	0.031054182
144	0xbdad6c92	-0.08467974
145	0xbdb7b323	-0.089697145
146	0x3d7ac1ad	0.06121986
147	0xbcfc14c5	-0.030771622
148	0x3d06aafb	0.032877903
149	0x3b31c86d	0.002712752
150	0xbe0f6cfa	-0.14006415
151	0x3d865ccf	0.065606706
152	0xbd9e6e53	-0.077358864
153	0xbada3b43	-0.0016649741
154	0x3d148623	0.036260735
155	0xbdea554c	-0.1144205
156	0xbe122ec5	-0.14275654
157	0x3d07a53b	0.03311656
158	0xbd1cd22f	-0.038286384
159	0xbc48e393	-0.012261289
160	0x3d41a682	0.047277935
161	0xba33bf6e	-0.00068568334
162	0x3cf7ec66	0.03026409
163	0xbdd569e3	-0.10420587
164	0x3df3cfe3	0.119048856
165	0x3d0afc90	0.03393227
166	0x3c92e1cf	0.01792994
167	0x3e64a399	0.22328033
168	0x3d041229	0.03224388
169	0xbe3ceaf8	-0.18449008
170	0xbcdba9e0	-0.026814401
171	0xbe8719a9	-0.26386765
172	0xbd33600b	-0.043792766
173	0x3ceb8bc5	0.02875317
174	0x3ca4dec3	0.020125752
175	0xb8295b07	-4.0377516e-05
176	0xbe042a37	-0.12906729
177	0x3da1e7b2	0.079055205
178	0xbdae0736	-0.08497469
179	0x3d8e8699	0.06959266
180	0xbc5362da	-0.012901986
181	0xbdae0882	-0.084977165
182	0x3d769f39	0.06021044
183	0x3e248ba8	0.160689
184	0x3d12066f	0.035650667
185	0xbb299e9b	-0.002588189
186	0xbda42232	-0.08014335
187	0xbe12513f	-0.14288805
188	0xbe3a0502	-0.18165973
189	0xbdd03376	-0.101660654
190	0x3da295e4	0.079387456
191	0x3cd749d7	0.026280327
192	0x3c38ab83	0.01127136
193	0x3d27671b	0.040869813
194	0x3cef8bff	0.02924156
195	0x3ca1c098	0.019745156
196	0xbcb7bb7d	-0.022428269
197	0xbca00c25	-0.019537041
198	0x3c366578	0.0111325905
199	0x3d926b9f	0.07149433
200	0xbda74ed3	-0.081693314
201	0xbde0ab5c	-0.10970184
202	0x3d5e8427	0.05432525
203	0xbc1914c1	-0.009343327
204	0x3e56b541	0.2096758
205	0xbe033562	-0.12813333
206	0xbce6d360	-0.028176963
207	0xbd538aec	-0.051646158
208	0x3d46ee38	0.048567027
209	0xbd1d7d64	-0.03844966
210	0x3c048556	0.00808843
211	0x3ce8bee9	0.028411346
212	0x3c090c4d	0.008364749
213	0xbd4261d0	-0.047456563
214	0xbd1cef29	-0.03831402
215	0x3e196dbe	0.1498327
216	0xbde3a1eb	-0.11114868
217	0xbdeaff05	-0.11474422
218	0x3d639d3a	0.055569865
219	0xbe088632	-0.13332441
220	0xbe8435db	-0.25822338
221	0xbdae5763	-0.085127614
222	0x3d6ff2c0	0.058581114
223	0x3db34d3d	0.087549664
224	0xbccd42e6	-0.025056314
225	0x3db61279	0.08890242
226	0x3dae5916	0.085130855
227	0x3d81da92	0.06340517
228	0x3b156784	0.0022797296
229	0xba7b6c23	-0.0009591004
230	0x3d8a59e4	0.067554265
231	0x3d815278	0.06314558
232	0x3ce218e8	0.027599767
233	0xbe0583a8	-0.13038504
234	0x3dace78e	0.08442603
235	0x3cf01382	0.029306177
236	0x3d2ca9f6	0.042154275
237	0x3cc1bc63	0.0236494
238	0xbc56dee9	-0.013114669
239	0xbd9c3d87	-0.07628923
240	0x3d292c9d	0.041302312
241	0xbc894b6a	-0.016759593
242	0x3dfcab9b	0.12337419
243	0x3d5f0bff	0.0544548
244	0xbe51a6cb	-0.20473783
245	0xbc0209f6	-0.007936945
246	0x3d921c36	0.07134287
247	0xbb556b06	-0.0032565012
248	0x3c154023	0.00910953
249	0xbca546b9	-0.020175325
250	0xbe1369ac	-0.1439578
251	0xbde16a42	-0.11006595
252	0x3e16679b	0.1468796
253	0x3ccfaad9	0.025350021
254	0x3d11e933	0.035622787
255	0xbdce60a6	-0.10077028

linear3.bias f4 [42]
0	0x3d40fe3c	0.047117457
1	0x3d732e10	0.0593701
2	0x3cadbae6	0.021207284
3	0x3e3b432a	0.1828734
4	0x3e683c32	0.22679213
5	0x3dce1b1b	0.10063764
6	0x3e92a374	0.2864033
7	0x3e98fa63	0.2987853
8	0x3e9869b9	0.2976816
9	0x3e966bf4	0.29379237
10	0x3e9b1e12	0.3029638
11	0x3ed142a8	0.40871167
12	0x3ed4f2bf	0.4159145
13	0x3ed0812f	0.4072356
14	0x3ed0798e	0.4071774
15	0x3eca9262	0.39564806
16	0x3e88bbad	0.26705685
17	0x3ebee59e	0.3728456
18	0x3c70032c	0.014649194
19	0x3f1686b3	0.58799285
20	0x3eeb1c6d	0.45920125
21	0x3f188b37	0.59587425
22	0x3f10c246	0.5654644
23	0x3e81a609	0.25321987
24	0x3e4fa36f	0.20277189
25	0x3ebbae77	0.36656544
26	0x3ec5bd73	0.386211
27	0x3eeefd5d	0.46677676
28	0x3ec1949a	0.37808686
29	0x3f041362	0.51592076
30	0x3eb3dd72	0.35129887
31	0x3ea5e383	0.3240014
32	0x3f7203c5	0.94537
33	0x3f2573db	0.64629906
34	0x3f0c905d	0.5490778
35	0x3d780876	0.060554944
36	0x3e875459	0.2643154
37	0x3f002714	0.5005963
38	0x3ee42b29	0.4456418
39	0x3edd800e	0.4326176
40	0x3e3caf7f	0.18426321
41	0x3e4d6b38	0.20060432
